.brain.pth (torch, 351899 bytes, 12 tensors)

fc1.weight f4 [128, 257]
00000000: 7ca6 053c af62 c13d e2fb bcbc 4a73 56bc
00000010: 530b 90bd 34f5 fe3c c083 543c cf09 2d3c
00000020: 1f3b e8bc 8bf8 f3bc 359c 82bd 6290 dfbb
00000030: e202 c8bc f1f8 01be 903b 99bc 7b0a 7abd
00000040: 490e d1bc e811 0bbc 35cd 8bbd 1fc8 8f3c
00000050: 9ce4 30bd 4780 413d 1d21 c53d aaec 453d
00000060: 20dd 293d 4970 1d3d 828d c23d 15f7 7a3d
00000070: 5217 083e 7a90 0a3d 0dd8 973d 2007 953d
00000080: 2d75 103c c6e4 e53c fdf7 9ebd 8b02 afbd
00000090: 397f 86bd d71e e7bd a4aa 27bd 6e17 30bd
000000a0: 8967 313b 8bca 0ebd 89ad 4e3d dc73 393d
000000b0: dd0f 883c d9bc 383d d103 8c3d e0c6 583d
000000c0: 25ab b03d 4863 1d3d af21 fa3b e817 d33b
000000d0: 7f67 a33d b95f 833d 053d 3abd 18b8 293d
000000e0: b09a 1dbd ee84 d93c 9de3 47bd 8683 b0bd
000000f0: ed15 77bd 4bb8 7dbd 7604 24bb 9e3e f8bb
00000100: 4858 b9bd b53c fcbc ddad 4dbc 3fdc 3abd
00000110: 174c a23a c8c4 543c aff8 bcbd 662d 43bd
00000120: b660 943c 750a 1cbb b725 643d 4a0f ef3c
00000130: 6477 f33c 2a8c 15bc 5573 07bc 165d 9dbc
00000140: 151b 483d 9db9 b5bc 3e6b 903b 2669 d7bc
00000150: 0403 dcbd 36a8 babd d0ab b2bd e635 0abd
00000160: 4585 40bd 20be 14bd 36fd 9cbc ccb6 2f3c
00000170: a77a 683d ca66 df3c ea18 ce3d 87ef d03d
00000180: 480f 013e 5963 8e3d 54a6 cb3d 8133 d53d
00000190: 3252 f73d 6cb9 7f3d 92d6 543d 8563 d13c
000001a0: 2583 6d3c 233e 803a 3585 67bd ce94 b6bb
000001b0: 0d2f 693d 63b9 d33d 722b aa3d 0b9b 8a3d
000001c0: 2878 9ebc f93e 903d cb20 763d 03cf 773d
000001d0: 30fb 40bd 3749 4b3c ca05 c43b 07dd 03bd
000001e0: b20e 54bd 2ba3 98bd 46b9 70bd 8f61 13be
000001f0: c846 39bd 6a05 4cbd b7ec 00be e00c febd
00000200: 3ca7 c5bd 91f3 6fbd 3ec8 70bd 331a 6abd
00000210: 0182 77bd 8e26 343c 238a 333d e0a3 3b3c
00000220: e18c c73d 80f3 e33c 984f 053e 2063 fa3d
00000230: 4708 873d 654d c23d 5aed e43d 1835 a23d
00000240: 1209 633d a07c 36bb 003e 0d3c 25d7 433d
00000250: 82a3 82bd a79e 81bd 1ced 12bd 8e01 c53c
00000260: 805a 07bd 049f 923c 4662 2b3c 9449 de3c
00000270: d0a0 a3ba 40f0 473c b59d 3f3d 6bbd 7bbd
00000280: ac0e 25bd cd16 a9bd c3b0 a2bd ed52 a4bd
00000290: 024f b9bd 2950 a5bd 26a6 1cbd 6752 5bbd
000002a0: 1ae2 c0bc 997f 53bd b5b8 47bd 454d 5ebd
000002b0: 8eed 46bd 7173 22bd b26f a5ba 11fc bc3c
000002c0: 4836 283d 7671 e33b ec2e 1d3d 4a08 da3c
000002d0: 246c 8a3d 4988 9e3d 2bfe b63c 8a0f 6d3d
000002e0: f5e0 733a 88a1 da3c 0e67 cabc cd6c 093d
000002f0: 9d66 343d 84c3 3e3d 6e49 c8bc 2373 cf3c
00000300: d005 e6bb b298 47bd e620 313d 639c 603d
00000310: c520 27bd 5f82 9abc 3b9e 8b3d dbb8 7e3d
00000320: dde9 86bc 1dd7 9bbc 8833 90bc 60ca 623c
00000330: 4da2 07bd 98f5 823d 0ae2 383d 8d5e b13c
00000340: f690 893d 3af2 20bc ac4c 913d 5afa 0fbd
00000350: 1eb1 33bc 907b 2a3d 14cc 3fbd 51c8 ee3a
00000360: 5c4e 7dbd 46da babd 8c7e eabd f3a9 b6bd
00000370: f062 cdbc 3ef6 8f3c 61b1 493c e06d 823c
00000380: c3c7 e7bc 0b4a db3c 565c 983c 1893 303d
00000390: 9200 9e3d 4616 3ebc 9c73 f93b efd0 223d
000003a0: e279 b93d f2aa ba3d 8a6e f43b a38f c13c
000003b0: 051e c2bc bcf4 d73b c572 a63b ec59 1fbb
000003c0: bf48 503d b5dc 77bc 70a6 a83d 80a4 543c
000003d0: 4802 74bc 7ae4 c63c 90d5 a9bd 19ca 6bbd
000003e0: 6223 88bd d284 d2bc 66f5 58bc 6814 0fbd
000003f0: 019f ddbd c860 13be 5d24 a4bd d415 1ebe
0.008157369 0.094426505 -0.023069326 -0.0130890105 -0.0703341 0.031122781 0.012970865 0.010561421
-0.028348504 -0.0297816 -0.063774504 -0.0068226317 -0.024415437 -0.1269262 -0.01870516 -0.06104515
-0.025519507 -0.008488156 -0.068262495 0.01755148 -0.04318677 0.047241475 0.096254565 0.048321404
0.041470647 0.03843716 0.09499647 0.061270792 0.13290146 0.03382919 0.07414255 0.072767496
0.008816999 0.02806319 -0.07762144 -0.08545407 -0.065672345 -0.11285179 -0.04093422 -0.042991094
0.0027069768 -0.03486113 0.050458465 0.045276508 0.016609127 0.045101974 0.068366654 0.052924037
0.08626393 0.03842476 0.00763341 0.006442059 0.07978725 0.06414742 -0.04546835 0.04143533
-0.0384776 0.026552644 -0.048801053 -0.08618836 -0.060323644 -0.061943334 -0.0025027073 -0.007575824
-0.090500414 -0.030790666 -0.012553659 -0.0456202 0.0012382296 0.012986369 -0.0922712 -0.047650717
0.018112522 -0.0023809944 0.05570003 0.029182095 0.029720016 -0.009127656 -0.008267243 -0.019209426
0.048853952 -0.022183234 0.0044073155 -0.026295256 -0.10742763 -0.09114115 -0.08724177 -0.033742808
-0.047002096 -0.03631413 -0.01916371 0.0107247345 0.056757595 0.027270693 0.10063346 0.10201936
0.12603486 0.06952543 0.09943834 0.10410214 0.120762244 0.06243269 0.051962443 0.02556015
0.014496599 0.0009784143 -0.05652352 -0.005571938 0.056929637 0.10338094 0.08309068 0.06767853
-0.019344404 0.07043261 0.060089868 0.060500156 -0.04711455 0.0124075925 0.0059821354 -0.03219321
-0.051771827 -0.07452997 -0.05877044 -0.14392684 -0.045233518 -0.04980985 -0.125903 -0.124047995
-0.09651038 -0.058581892 -0.058784716 -0.05715389 -0.060426716 0.01099552 0.04383291 0.011452645
0.097436674 0.02782607 0.13018644 0.12225938 0.06593376 0.09487418 0.11178084 0.07920283
0.055428572 -0.0027845278 0.008620739 0.0478126 -0.06378843 -0.06329089 -0.035870656 0.024048593
-0.033045292 0.01789809 0.010460442 0.027134694 -0.0012483839 0.012203276 0.04678126 -0.06145994
-0.040297195 -0.08256302 -0.07943871 -0.08023629 -0.09048273 -0.0807193 -0.03824439 -0.053545382
-0.023545314 -0.05163536 -0.048760135 -0.05427291 -0.048566394 -0.039660875 -0.0012621789 0.023069413
0.04106739 0.006941016 0.038374826 0.02661528 0.067589074 0.07740838 0.022337994 0.057876147
0.00093032356 0.026688352 -0.024707343 0.033551026 0.044043172 0.046573177 -0.024449077 0.025323456
-0.007019736 -0.048729606 0.043244265 0.054836642 -0.040802736 -0.018860994 0.068172894 0.06218801
-0.016468937 -0.019023472 -0.017602697 0.013842195 -0.033113766 0.063944995 0.045137443 0.02165153
0.06717102 -0.009823376 0.07094702 -0.035150863 -0.010967521 0.041621745 -0.046825483 0.0018217658
-0.061842307 -0.091236636 -0.11449918 -0.08919134 -0.025071591 0.017573472 0.012310357 0.015921533
-0.028293496 0.026768705 0.018598717 0.04310903 0.077149525 -0.01160199 0.0076126587 0.039750036
0.090564504 0.091146365 0.0074594663 0.023628062 -0.023695955 0.006590454 0.0050795996 -0.0024315072
0.050850626 -0.015128304 0.082348704 0.012978673 -0.014893122 0.024278868 -0.08292687 -0.057565782
-0.06647374 -0.0256981 -0.013242101 -0.03493157 -0.10821343 -0.14392388 -0.08014748 -0.15438014

fc1.bias f4 [128]
00000000: ff87 5dbd 2f58 823e 6c44 333e fdca 3fbe
00000010: e49a ca3d bfc6 a4be d61e 62be d6bb 00be
00000020: fa74 9cbd 212b 11be ec36 df3d a241 0c3e
00000030: 4a84 2a3e 49e1 c5bd 38ab 25bc d79d 733d
00000040: 799e 5b3c d756 2bbe 2596 483e 53b0 b0bd
00000050: f0be 0ebe 5c85 77be 73c7 69be 789d 073e
00000060: 468e 0dbe 1736 2f3e 23f3 72be 808b ab3d
00000070: 6196 4f3e 5cdb 4a3e ea10 0fbe a550 9fbd
00000080: d19b 533d 3e6f 3fbe 0d24 0ebe 8059 a4bd
00000090: 1282 e63d a1b7 7dbe 3324 163e 5a10 e53d
000000a0: f749 4ebe b1a2 5f3e 7c66 00be 0c34 31be
000000b0: 959b e2bc deb9 3f3e a634 34be 4ca4 9cbd
000000c0: cce3 223e 9ee9 0fbe 6946 4fbe 5350 0cbb
000000d0: 75d6 32be b270 d13a c922 08be 3103 80be
000000e0: 7085 33be 4615 22be 3649 83be 06e7 5cbd
000000f0: d8e9 91be 1cc4 4b3e 23f7 1fbe 6ee7 4d3e
00000100: 412c 5ebe d5ed 1abe 767c 25be 9dc7 ac3d
00000110: f4ad 64be b7c8 35be 0fb9 88bd 423f e13d
00000120: 6c89 e13d 6e55 8abe da5f e03d 97f7 273e
00000130: 57ae 45be f4ea 863e 031c 243e 9916 0d3e
00000140: 4219 f63d 4765 94bd dccd 8fbc 2e06 1ebd
00000150: cc16 57be 4043 843d 2c32 303e fb6c a1be
00000160: 8a5c 073e 094f 3abe 07d9 57be f290 59bd
00000170: 2ea9 af3d 0016 6a3d 5cde bd3d cfb3 963c
00000180: ea08 69be b768 323e bf24 8f3e d41e 1f3e
00000190: 7af0 91be 9ec0 533e c635 d2bd acf0 4e3b
000001a0: 8ef0 26bd cb70 433d 5148 08be dea9 0f3e
000001b0: 55e4 18be d1b9 663e e742 4cbe b7f1 b23d
000001c0: e593 8f3e c51f 9abd b2cd a23d d19b 553e
000001d0: 7055 3e3d d8bb c7bd 5f80 7b3e 530f fabd
000001e0: 797c 283e 6ffb 543e db54 013e 50df 50be
000001f0: f060 413e c857 403e e29f a4bc c5c1 f3bd
-0.054084774 0.25457904 0.1750657 -0.18729778 0.09892824 -0.3218288 -0.22082075 -0.12571654
-0.07639499 -0.14176609 0.108991474 0.13696912 0.16652027 -0.0966211 -0.0101116225 0.0594767
0.013404482 -0.16732346 0.19588526 -0.08627381 -0.13940024 -0.24171966 -0.2282999 0.13243663
-0.13823804 0.17110477 -0.23725562 0.08376217 0.20272209 0.19810241 -0.13971296 -0.077790536
0.05166227 -0.1869478 -0.1388094 -0.08024883 0.11255278 -0.2477708 0.14662246 0.111847594
-0.20145403 0.21839406 -0.12539095 -0.1730501 -0.027662078 0.18723246 -0.17598209 -0.07648525
0.1590721 -0.14053962 -0.20241703 -0.0021410182 -0.17464621 0.001597902 -0.1329452 -0.25002435
-0.17531371 -0.15828428 -0.25641793 -0.05393126 -0.2849872 0.19899029 -0.15621619 0.20107815
-0.21696569 -0.15129788 -0.1616076 0.08436511 -0.22331983 -0.17752348 -0.06675922 0.109983936
0.11012539 -0.27018303 0.10955782 0.16403042 -0.19304787 0.2635113 0.1602631 0.13778152
0.12016536 -0.072458796 -0.017554216 -0.038580112 -0.2100479 0.064581394 0.17206639 -0.31528458
0.13218895 -0.18194212 -0.21078883 -0.053116746 0.0857719 0.057149887 0.09270927 0.018396286
-0.22757307 0.17422758 0.27957723 0.15539104 -0.28503782 0.20678946 -0.10264163 0.0031576557
-0.040756755 0.04771499 -0.13308837 0.14029643 -0.14930852 0.22531821 -0.19947396 0.0873751
0.28042522 -0.07525591 0.079493895 0.2086022 0.0464682 -0.09752625 0.24560688 -0.12209954
0.16453733 0.2079904 0.12630026 -0.20397687 0.18884635 0.18783486 -0.02009577 -0.11902193

fc2.weight f4 [64, 128]
00000000: b700 e5bb 6178 c33c cbf3 3d3d a432 2a3c
00000010: 3bc0 dcbc b855 9abd c640 ba3d 74b1 1abd
00000020: ee95 bcbd 8f5c 83bd 086d 8bbd 0e59 9abd
00000030: 9ad5 283d 4850 f5bb 8a35 f9bd 94d8 6fbd
00000040: 70f3 16bd 22ca 973d b16d 5d3c 9839 64bd
00000050: a335 d23d f8b0 57bc 5a3e 3e3d 15e8 1d3c
00000060: 0208 a03d 728f 5e3c 52ae 5a3d 27b3 84ba
00000070: 0cf6 1a3d 71ac f1bd 1f44 913d 0bf8 7c3d
00000080: 2940 ab3d d5fb 97bd 65ca e1bc eed1 2cbd
00000090: 8a90 a8bb 7c83 17bd 5df8 9139 4e40 b0bc
000000a0: 9424 a0bd 1f3c 933b 8e11 00bd d392 95bd
000000b0: e30d 86bb 29cd d2bc 285d 813d e617 3dbd
000000c0: 7dc2 173c 2c46 ee3c ebf0 0a3d cc9d 643d
000000d0: 8697 643c f339 193d f281 a93d 6f6f e5bc
000000e0: 6f8f 9cbc 1c2e 5f3d 8a6e 60bc 7d09 b7bd
000000f0: 7208 7abc 2f7e 353d 61f9 863d 44dc c03d
00000100: 7823 45bc 9252 463d 5e3d debc 21fb 563e
00000110: 4130 533a ac76 a8bb 1216 ed3c 2c8d d5bd
00000120: 9cbe b2bd 4491 593d 4fef 863c 4693 8d3c
00000130: 6b99 673d 50ad a23c 0baf d5bd ad5e 693d
00000140: b8f6 9ebd eaa2 8b3d 066e 0bbe e248 5ebd
00000150: 2fda 073b 22f3 95bd 0f75 bf3c fea3 26bc
00000160: 42c5 f63b efa1 7fbd 9097 e2bc 8805 1e3c
00000170: 0f87 40bc feb6 3cbc 1eae 1ebc fe3d 103c
00000180: f540 ca3c bf9a 3f3d 0138 d0bc 5322 ab3d
00000190: fb97 663d b838 65bb 7ceb 2ebc e3a8 a3bc
000001a0: 1805 253d 2e24 a2bb 2eac c23c 0aff 913d
000001b0: dd9a fdbd 603c bd3c 6f93 853c a993 9a3d
000001c0: 9d69 833d 6268 96bd f271 47bb 9520 b0bd
000001d0: d6ea ba3d 9511 d13c 0fae 1e3d 9a0a 523d
000001e0: 32f6 503d 1344 38bd 97c8 a73c 67be 9abc
000001f0: 1f81 56bd ffb4 e1bd c39f a9bc edd8 163d
00000200: 88fd ee3c 9bd1 fb3c 48dc 173d 25d5 8b3d
00000210: be90 2f3d 2da8 c43b 24a6 48bc f6ee 6bbd
00000220: d059 8fbd a99e 5abd 60f8 583d 2c6b 22bd
00000230: b3a2 96bd c446 223d a1e0 18bd b302 4d3c
00000240: 910c ea3c e234 b43d 97b1 d73d 6dc5 973c
00000250: 3faf 213d 228b 9bbc 2c39 15bd 7cd1 87bc
00000260: 2ce9 10bd 9d72 25bb a7e0 89bd 126a bebd
00000270: d87f 80bd 2976 18bd 6783 26bd 8e30 373b
00000280: 690f 973d e061 d6bb 99b1 4a3d ea56 993b
00000290: 313d 2fbc 63d4 2f3d 8b83 323d 79da e3bc
000002a0: f5ae 79bc 509c 493d 4831 9a3c 9619 893d
000002b0: 5c53 a03d 5748 ecb9 36d8 a53c c5bf 663d
000002c0: c4a5 a7bd ad4d 583d b68e f9bc e475 4cbb
000002d0: c8dc bc3d 7eaa 9fbd b30b 52ba ed94 f93b
000002e0: dd23 043d 1b76 b9bd bedb 91bd c3b0 ae3d
000002f0: e2ec b43d 5e15 a1bc 9e4d b63c a490 2f3c
00000300: c1b2 6dbd 4573 09bd c971 21bc a44e acbd
00000310: 3c44 8dbd a58b 953d 0c0a aa3d 4bed 503d
00000320: fa39 8fbd 24ea 683d 34ac 183d 93d8 93bd
00000330: c816 99bd 18fb 893d 5070 5dbd 356d 65bc
00000340: a5a2 5fbd 4628 923d f4df b33d 4cc0 373b
00000350: a115 ae3d 2c4e a1bc efde f2bd 9571 0bbd
00000360: 625a 74bd 0b0a 55bd f689 c63d f44e edbc
00000370: 7ac2 8bbd 9e0e 573b 065c 063c 7a6e a93d
00000380: da38 6fbd ac65 343d 48dd d73d eb76 04bd
00000390: aaf9 aa3d 8874 a3bd 0c65 c3bd 4d8c b23d
000003a0: a0be 24bc 74d2 57bd 01cd efbc 6ad4 c7bd
000003b0: de5e a33c 6fa6 dcbd 36e4 e13d 211c dcbd
000003c0: 8623 dcbb 5fa0 7fbd bddd 9fbc 596f f2bc
000003d0: 0f86 88bd 58e2 afbd 1144 ae3d 3ce3 603d
000003e0: b8ae f8bc b328 dabd 6904 adbd 9e51 07bd
000003f0: 46ef 153d c863 063d bcac 7e3c 9d41 8e3d
-0.0069886106 0.023861112 0.046375077 0.01038805 -0.026947131 -0.07535881 0.09094386 -0.03776689
-0.09208284 -0.064141385 -0.068079054 -0.07536517 0.04121933 -0.007486377 -0.12168415 -0.058556154
-0.036853254 0.07411601 0.013514922 -0.05571899 0.10264137 -0.013164751 0.04644618 0.009637852
0.07814027 0.013584005 0.0533889 -0.0010124192 0.037832305 -0.11800469 0.07093071 0.06175999
0.08361847 -0.0742108 -0.02756233 -0.042192392 -0.0051441835 -0.036990628 0.000278416 -0.021515038
-0.07819477 0.004493251 -0.03126674 -0.07303395 -0.004091011 -0.025732594 0.06316596 -0.04616537
0.009262678 0.029086195 0.033921164 0.05581455 0.013952142 0.03740878 0.08276738 -0.028007237
-0.019111363 0.054487333 -0.01369823 -0.089373566 -0.015260803 0.04430979 0.06590534 0.09417012
-0.012032382 0.04841859 -0.027128872 0.20994236 0.00080562016 -0.0051411 0.028941188 -0.10427317
-0.08727762 0.05311705 0.016471533 0.01728214 0.056542795 0.019858032 -0.104337774 0.056975055
-0.077619016 0.06818183 -0.1361619 -0.054268725 0.0020729413 -0.073217645 0.023371248 -0.010170935
0.007530839 -0.06241029 -0.027660161 0.009644873 -0.0117509505 -0.011518238 -0.009685067 0.008803843
0.024689177 0.046778437 -0.02541733 0.08356156 0.056297284 -0.0034976434 -0.010676261 -0.019977992
0.04028806 -0.0049481606 0.023763742 0.07128723 -0.123830535 0.023100078 0.016305653 0.07547695
0.064166285 -0.07344128 -0.0030432907 -0.085999645 0.09126823 0.02552108 0.038740214 0.05127964
0.05101604 -0.044986796 0.02048139 -0.018889619 -0.052369233 -0.110208504 -0.020706063 0.03682797
0.029173627 0.030739596 0.03707531 0.068277635 0.042862646 0.0060014934 -0.012246642 -0.057600938
-0.06999552 -0.053373966 0.052971244 -0.03965299 -0.07355251 0.03961827 -0.037323598 0.012512851
0.028570445 0.08799149 0.105319194 0.018526757 0.03947377 -0.018987242 -0.036431476 -0.016579382
-0.03537862 -0.0025245317 -0.06732302 -0.09297575 -0.06274384 -0.03722206 -0.04065266 0.0027952525
0.07375986 -0.0065424293 0.049485777 0.0046795504 -0.0106957415 0.042927157 0.04358248 -0.027814137
-0.015239467 0.049221337 0.018822327 0.06694333 0.078283995 -0.00045067325 0.020244699 0.05633523
-0.08185914 0.052808452 -0.030463558 -0.0031198198 0.09221798 -0.07796191 -0.00080126076 0.0076166303
0.032260764 -0.0905573 -0.071219906 0.08529808 0.08834244 -0.019663509 0.022253808 0.010715637
-0.0580318 -0.033557195 -0.009853789 -0.08413437 -0.0689778 0.07302026 0.083026975 0.05100755
-0.0699348 0.05686392 0.0372736 -0.07219043 -0.07475048 0.067373455 -0.054062188 -0.014003088
-0.05459847 0.07136588 0.0878295 0.0028038202 0.08500219 -0.019690596 -0.118589275 -0.034043867
-0.05965651 -0.05201153 0.09694283 -0.028968312 -0.06824203 0.003281511 0.008200651 0.08273025
-0.058403827 0.044042274 0.10540253 -0.03233997 0.08348401 -0.07981211 -0.095407575 0.087181665
-0.010055214 -0.052690938 -0.029272558 -0.09757312 0.019942697 -0.10773932 0.11029856 -0.10747553
-0.006718102 -0.0624088 -0.019514913 -0.02959411 -0.06666195 -0.085880935 0.085090764 0.054904208
-0.03035675 -0.10652294 -0.08448107 -0.03303682 0.036605142 0.032810003 0.015544113 0.069461085

fc2.bias f4 [64]
00000000: 9fd6 6ebd eec4 d3bd d36c dcbc ff39 323c
00000010: f96a ddbd 2160 eb3c b649 6d3b 6a69 f43b
00000020: deac af3d 58ec f4bc d283 15bd e2fa 6ebc
00000030: 08e0 513d aba8 183e 44d5 b53c 192a b9bd
00000040: e807 34bd 864b ebbd 2380 ec3d 6ebc e0bd
00000050: 60ff a63d 989b 393d 4507 703d 4ddc ff3d
00000060: df15 1a3d 52b8 823d e13a ffbd 9bd2 123e
00000070: 5911 1fbd 3133 0fbd 5c68 b23d 113d b4bd
00000080: 5126 9fbd 1433 37bd 0e80 ff3d c66c d83b
00000090: 0644 06be 035a a23d eb23 7bbd cedd ff3d
000000a0: 509d 8d3d da31 b33d 30eb 5bbc cd49 f43d
000000b0: 7f8a be3d ac35 e43d a72a 03be 06d3 e13c
000000c0: e14b 193d 6e7e a4bd b79b eabd dabe 763c
000000d0: a336 2ebd 1e80 50bd e2a8 a43d f3dc 3abd
000000e0: 0f0a 1abc f049 e63d 9593 ab3d 819c cdbd
000000f0: 4f27 41bd 9b18 0dbd f154 ba3c 5041 17bd
-0.058310147 -0.10340296 -0.02690736 0.010878085 -0.10811419 0.028732361 0.0036207265 0.0074588554
0.08577894 -0.029897854 -0.036502667 -0.014586182 0.051239043 0.14908092 0.02219642 -0.090412326
-0.043952852 -0.11489014 0.11547878 -0.1097344 0.08154178 0.0453144 0.058600683 0.12493191
0.037618514 0.063828126 -0.12462402 0.14338152 -0.038834903 -0.03496093 0.08711311 -0.0880071
-0.0777098 -0.044726446 0.12475596 0.0066047637 -0.13111886 0.079273246 -0.06131355 0.12493478
0.069147706 0.08749743 -0.013422772 0.11928139 0.0930376 0.111430496 -0.1280924 0.027566444
0.03742588 -0.08031927 -0.114554815 0.015060151 -0.042532574 -0.050903432 0.08040024 -0.04562087
-0.009401812 0.11244571 0.083777584 -0.100396164 -0.04715663 -0.034447294 0.022745581 -0.03692752

fc3.weight f4 [32, 64]
00000000: 4dda 683d 7998 363d 0ddf 73bd 4e5f 5bbd
00000010: f61a 8f3d 783a df3b 5429 0d3e 64d6 5abd
00000020: b69a 1f3c ae1f 1d3d 470d 213e 30f5 ad3d
00000030: 30e1 81bd ae28 863d 32ae a2bd ef5c bbbd
00000040: 088c 3bbd 3f04 c5bd b263 213c 48c9 a4bc
00000050: 1543 4cbd 61a5 f7bd 1b17 f13b 5443 87bb
00000060: b31a 8c3d 5ddd 943d c75f 163e cd9b ad3d
00000070: 5a72 273d e056 e13d dbb1 8abd 7cf8 71bd
00000080: ed3c 7f3d a4df f93b a3b1 be3b 7ff0 57bd
00000090: efd3 85bd bb2f 14bd a06e cebd 79b8 e6b8
000000a0: 9784 07bd c08c 2c3d ff2b 993d 194b 91bd
000000b0: 2429 cb3d 7047 cfbd bc25 403d d83e 71bd
000000c0: e239 f93d fa4b 7e3d 1699 65bd 846a 17bd
000000d0: 32fc ee3a d0e9 0e3e 7c81 8e3c dd32 49bd
000000e0: 71c2 9a3d b784 5c3d 74be 483d 2f68 57bd
000000f0: aade f63c 1a0c 1ebe 09db fe3c f5bd 9ebd
00000100: 3fc4 ef3d b816 7ebd c853 913d 7462 e03d
00000110: 5ff1 e4bb d941 07be b475 ebbd badc ecbd
00000120: 7fc7 933d 5ee5 58bd 3fba d03d cf68 22bd
00000130: 6165 8dbd 5792 82bd 6e42 a0bd 1f41 fbbc
00000140: a42f 9dbd 476d 013c e549 acbd fdf7 f23c
00000150: 5264 f73d 11b7 663d 6c9f 3cbd 3b27 42bd
00000160: aa4e 02bd 0093 cb3d 343b aebc 5b49 533c
00000170: 9587 85bc 9efe cb3d 0343 13bd 297a 66bd
00000180: 2b27 d03d 7afc 83bc 1b7f ba3d bf0c 20be
00000190: d318 723d 0e37 2b3e 35fa 77bd a2df d0bd
000001a0: 61f8 f13b 1e17 61bd 69cc 21bd f8f2 7dba
000001b0: 7093 713b 3d88 9dbd 8e00 4f3d 5e5a 9c3d
000001c0: cc91 f7bd 9050 1e3b 4b2f ae3d 82e7 a7bc
000001d0: d35e e73a 3e4f b2bd 609e 6abd 2e89 15bd
000001e0: fb61 2abd 4b0d 143d 0a70 d93d df3e 32bc
000001f0: d33f 9ebc 9205 90bd 4b00 edbd 1bce 3d3d
00000200: e51b f43b bf2b c43c 819f 933b 0079 1fbd
00000210: 23f9 65bd e2ec 6c3c f56a d03d 3fbd 303c
00000220: 2cb1 18bd 8a9d 063d 0f36 903d a35a f7bd
00000230: 1132 0f3e d882 04be 33b0 81bd ee54 bdbd
00000240: 9502 aebd 4083 6abd d01f 213d 1c77 c63c
00000250: f69d d43d 6886 f53d c58d e43d 1e84 0cbd
00000260: bdac 89bd 3df4 2cbd 24f4 853d 2511 ea3d
00000270: 7b20 82bc 743e 25be d009 813d 5358 8abd
00000280: a9a5 c13d 83df fc3d 0a2f a53d 52c7 e6bd
00000290: 7ca0 a53c 652a 84bd e4b4 d63d ae47 35bd
000002a0: fb54 edbd 56f0 dfbd 5e04 c53d 70d2 a43d
000002b0: 6ff9 6fbd 4263 963d c415 11be 5ee8 133d
000002c0: 6eac a33d dc84 0abd 1d72 683d d932 dd3b
000002d0: 9e29 a93c 696c f8bc 2e4c d3bd 6275 3fbd
000002e0: 6ec1 cb3d e565 923c 3a13 b7bd ac4f dcbd
000002f0: 7176 19be 87ce 2e3d 91a6 823d 2ad7 34bd
00000300: 67fd 21bb 8e68 e43c 0943 b83c a91f ccbd
00000310: 6240 a63d 50c1 f13c be01 22bc 151b 383d
00000320: 0f87 b13d 7bc2 bb3c 4cfd c13c 4f01 6c3d
00000330: 22e8 39bd a6a7 afbd 8df1 bebd b794 683d
00000340: 5510 3dbc 97cc 47bd e5bd 00be 1342 fcbd
00000350: 6f96 e73d 4de6 9ebd 9b4b afbc 526c 283b
00000360: 7b4b 413d 3594 8bbd 8ec1 92bc 1d39 e7bd
00000370: a4b9 ea3d 960f 6cbc f61d 3d3c a6f0 8f3c
00000380: 987d ab3d c1c3 233e 3388 a93d a992 0fbe
00000390: 94fe 8cbd cfa1 a1bb bb4f 203d 55ef e7bc
000003a0: 9b26 c4bd 4199 1f3e fc54 8fbd d954 31bc
000003b0: af5d 89bd b203 cf3d e141 0abd bd0f 10bb
000003c0: c42d b7bd 9e9c 00bd b4b6 c6bd 9e0a 81bd
000003d0: 75ac be3d 0eb9 febc 51dd f0bd f671 2539
000003e0: 96e1 bb3c 69ea 92bd d24d 963c 3794 5f3c
000003f0: 0da8 1b3e 63e0 d53d 1e44 6c3d f454 a53d
0.056848813 0.044579003 -0.05953889 -0.053557687 0.06987564 0.00681239 0.13785297 -0.053427115
0.009741476 0.03836029 0.15727721 0.084940314 -0.06341779 0.06550728 -0.07943381 -0.09148585
-0.04578784 -0.096199505 0.009850429 -0.02011551 -0.049868662 -0.120920904 0.0073574907 -0.004127899
0.0684103 0.07268784 0.14684974 0.08476982 0.04088054 0.11002898 -0.067722045 -0.059074864
0.062313963 0.007625537 0.005819516 -0.05271959 -0.06534564 -0.03617833 -0.10079694 -0.00011001615
-0.033085432 0.042126417 0.07479095 -0.07094402 0.09919956 -0.101210475 0.046910986 -0.058897823
0.121692434 0.062084176 -0.056054197 -0.036966816 0.0018233119 0.1395638 0.017395727 -0.049120773
0.07556618 0.053837504 0.049009755 -0.05258959 0.030135471 -0.15434304 0.031110303 -0.07751075
0.11707353 -0.062033385 0.07096058 0.109562784 -0.0069867815 -0.13208713 -0.114970595 -0.11565538
0.07215785 -0.052953117 0.101917736 -0.039650735 -0.06904102 -0.06375568 -0.078251705 -0.0306707
-0.07675102 0.007899589 -0.08412532 0.029659266 0.120796815 0.05632693 -0.046050474 -0.047400694
-0.0318133 0.099401474 -0.021268465 0.012895907 -0.016300002 0.09960674 -0.03595258 -0.056268845
0.10163721 -0.016111601 0.09106275 -0.15629862 0.059105705 0.1672022 -0.06054135 -0.101989046
0.0073843454 -0.054953687 -0.03950158 -0.0009687389 0.0036861561 -0.07692001 0.05053764 0.07634424
-0.120883554 0.0024156906 0.08505114 -0.020496134 0.0017652161 -0.087065205 -0.057279944 -0.036507778
-0.041597348 0.03614549 0.10617073 -0.010879247 -0.019317543 -0.070323125 -0.115723215 0.046339136
0.0074496143 0.023946641 0.0045050983 -0.038933754 -0.0561458 0.014460774 0.101766504 0.010787307
-0.03727834 0.032865085 0.07041561 -0.120778345 0.13983943 -0.12940538 -0.063324355 -0.09244715
-0.08496586 -0.057254076 0.03933698 0.024226718 0.10381691 0.119885266 0.11159853 -0.034305684
-0.067224 -0.04222511 0.06540707 0.11429051 -0.015884629 -0.16137105 0.063007 -0.06755128
0.09455425 0.12347319 0.080656126 -0.11268486 0.020218126 -0.064533986 0.10483721 -0.044257812
-0.11588474 -0.10934512 0.096199736 0.0804795 -0.058587488 0.07343151 -0.14168459 0.036110274
0.07991873 -0.03381811 0.056749452 0.0067504463 0.020649727 -0.030325131 -0.103172645 -0.046742804
0.09949003 0.017870853 -0.08939214 -0.10757384 -0.14986588 0.04267743 0.06379426 -0.04415051
-0.002471769 0.027881887 0.022492902 -0.09966976 0.08117749 0.029511124 -0.009888111 0.044947702
0.086683385 0.022919884 0.023680352 0.057618435 -0.045387395 -0.08576898 -0.09323416 0.05678245
-0.011539538 -0.048779096 -0.12572439 -0.1231729 0.1130799 -0.0775877 -0.021398356 0.002569933
0.047191124 -0.068153776 -0.01791456 -0.1129019 0.114611894 -0.014408013 0.011542788 0.017570805
0.083735645 0.15992643 0.08277931 -0.1402079 -0.068844944 -0.004932619 0.039138537 -0.028312365
-0.09577676 0.15585805 -0.06998631 -0.010823452 -0.06707322 0.10108127 -0.033754233 -0.0021982037
-0.08944276 -0.03139936 -0.097028166 -0.06300853 0.09310237 -0.0310941 -0.11760963 0.0001577808
0.022934716 -0.071736164 0.018347654 0.013646177 0.15200825 0.10443189 0.05768215 0.08072844

fc3.bias f4 [32]
00000000: 629a 0dbd dfe0 8a3c 6bdc 183d 5bd5 77b9
00000010: 31c5 2c3d 531b bcbd 973a 86bd 58f9 c03a
00000020: e6f5 78bd 76e0 c4bc 8081 5b3d 6e7a b7bc
00000030: 91ba 6ebc a17d 9b3d b497 ff3c c446 0e3d
00000040: 7875 033d bd19 173d f7bd 17bd 1de8 02be
00000050: 4d8f a5b9 b812 9fbd 141b f4bd ca95 f9bd
00000060: 1367 493c da21 dc3d 25f8 aa3c d53f 9dbd
00000070: 00f1 5abd 441b 0abd e593 ce3d b418 9e3d
-0.03457106 0.01695293 0.037319582 -0.00023635237 0.042180244 -0.09184899 -0.06554144 0.0014722748
-0.060781382 -0.024032813 0.053590298 -0.022397246 -0.014570848 0.07592321 0.031200267 0.034735456
0.03209445 0.03688978 -0.0370464 -0.12783857 -0.0003157802 -0.07767242 -0.11919227 -0.12186773
0.012292641 0.10748644 0.020870278 -0.076781906 -0.05345249 -0.03371741 0.100868024 0.077195555

fc3out.weight f4 [64, 32]
00000000: fc7b 0e3e eaf3 77bd ed6a c13c 956e 453e
00000010: 96b6 3c3e c1c0 883d 6840 babd 68dd ae3d
00000020: b4d7 14be b48f 253e 420d a9bd dce8 a4bd
00000030: 03b4 073e f247 143e e0e9 453d 42a8 14be
00000040: 0c6f 12bc 0b7c 13bd 611d 9f3c 3cb1 4cbd
00000050: 6356 c03d aaab ea3d b135 8cbd 140d fc3d
00000060: f035 45be c3d7 16be bae4 323d 42e2 0f3e
00000070: 8c34 713e 2200 47be 0ce3 b13d fc25 263e
00000080: edcd 1bbe 1fc9 17bd 6ec7 3bbe 9511 273e
00000090: d29c 203e 6b3e 553d 67b5 61be ec69 80bd
000000a0: 57e3 013e 727f 4fbd 1d5c 483e cf35 c5ba
000000b0: 0438 d53d 0547 923e 787a 193d 5685 a43d
000000c0: 7b4c 4fbe b2e9 b83d 31c7 a23c 5992 09be
000000d0: a0bc 753b cbb4 adbd a165 503d 8c24 97bd
000000e0: 9967 dfbd c939 c53c 74c9 88bc bf97 e3bd
000000f0: 340b cebd 871d 953d 97f0 823c c190 a53d
00000100: f0ee 27be 1fb2 c6bd a965 32be c19e 10be
00000110: eb17 563e f47c b3bd c9de a5bd eaba 1f3d
00000120: e9d6 78bb b339 febd 8c06 6abc f1b3 263e
00000130: 482e 293e d1cd 6bbd 2cfe 14be 81cc c5bc
00000140: 5eba 273e 3e97 a6bc deac c73d be84 403e
00000150: b012 003e 63ed 63bd 3777 853b 4f81 693c
00000160: 8542 433d 0061 e4bb 8000 29be c759 febd
00000170: aec0 28bc 0fb5 d23d 3d5a 633d 231b fb3d
00000180: 1e68 923d 14d6 35bc 001c 9c3d 12de 4dbc
00000190: a89c 3cbe f134 b53d a232 97bc b0a6 563d
000001a0: 45b2 173d 75a1 3e3e df9b 06be d2d7 26be
000001b0: bdb8 92bd a3ad 013d 4b74 4c3d 7467 53be
000001c0: 7bbd 3a3d eeca 2a3d 28f4 c63d 8a2a 733c
000001d0: 4646 3e3e 9bca 0a3e 170c 7e3e 16ea 66bd
000001e0: fdcd 06be bdc9 03be 52af 20bc c67b dcbd
000001f0: 60de 01bc 001b 3f3c 4977 5ebe ca6e 3ebd
00000200: 1cb3 3b3d 22b9 20be 027c 573d cf19 033d
00000210: b4a2 823c ac2f ae3d 483e 463e e4b5 8abd
00000220: 9711 b83d 75b6 0f3e 0945 313e 87a3 753d
00000230: 274b 453e 1d79 d1bd e70f c63d 6ac3 cc3c
00000240: 3b2d 173e 6d17 e3bc 2900 173e 39f6 16be
00000250: 4218 86bc d619 193e e0d8 17be ce14 14be
00000260: d104 09bd b433 64be 07b4 1cbe 2dc6 803b
00000270: bb51 c4bd 0b9b d8bd 0b80 b93d c099 f9bd
00000280: b6cf 85bd 35a3 86bd d60a acbc 4c24 2a3c
00000290: 3265 253d a00a 153e cf52 79bd aaf0 54be
000002a0: 9df8 2abe 0808 083e 7bbd f43c b7ac 2e3b
000002b0: e3dc c4bc d205 dc3d 73a2 0fbe 3b40 f83c
000002c0: e21e f7bd ab2b 28be f3bc 4f3e fb6a 453e
000002d0: 3c4f 773d 2060 b4bc 80fd 38be d2fc d73d
000002e0: 08ae d43d df64 aa3b dd47 993d 6c25 ed3c
000002f0: cea3 2e3e 652a 813d 5cca 7abe 4da8 073d
00000300: d3ef 89bd fc97 9a3c f7e1 6f3d ab61 87bc
00000310: 5b1f 013e fced 17be 7905 53be c869 f13d
00000320: 2a7c 4a3e 75cb eabc 1d3a 273e 6c6a 2d3e
00000330: 687b ddbc 32b5 19be 63d6 833d f997 0bbc
00000340: de03 c2bd e78d aabd 50b0 383e 5110 d9bd
00000350: aaf0 84be cd35 483d 0431 babd df2d 9ebd
00000360: 8197 86bc cc51 96bd ad76 37bd a496 25be
00000370: 9fbb 993d 8143 8dbd 3359 9fbe aa22 48be
00000380: 0bbe 8bbd e015 cbbb 1e0a adbd 918b 37bd
00000390: 589f 2abe 839c d93c f853 32be 989c 023e
000003a0: 95ac cabc 3b43 aabd 4dff 1ebe 701c d63c
000003b0: 77e7 29be 03e1 adbd f55d 453e 9372 20bd
000003c0: 48b9 283d 795c 6c3e 7845 4c3e dea9 0e3e
000003d0: 5bc4 e13d 8835 8b3c f05f 88bb cb30 4ebc
000003e0: ca33 073e 53b3 b1bc cee0 183e 9c4e 50bc
000003f0: 4b9e 3a3e 90b1 a4bb 6f83 a9bc a14c 7f3e
0.13914484 -0.06053535 0.023610556 0.19280465 0.18429026 0.0667739 -0.09094316 0.08538324
-0.14535409 0.161681 -0.08254482 -0.08052227 0.13252263 0.1448057 0.048318744 -0.1451731
-0.008937608 -0.03600697 0.019423189 -0.04997371 0.09391477 0.114585236 -0.06846178 0.12307182
-0.19258857 -0.14730744 0.043675162 0.14051154 0.23555201 -0.19433644 0.08685884 0.16225427
-0.15215273 -0.03705704 -0.18337795 0.16315301 0.15684822 0.05206148 -0.22041856 -0.06270203
0.1268438 -0.05065865 0.19566388 -0.0015045943 0.10411075 0.2856981 0.03747031 0.08033244
-0.20244019 0.09028949 0.019870372 -0.13434733 0.0037496462 -0.08481749 0.05087817 -0.07380018
-0.109084316 0.024075406 -0.016697623 -0.11112928 -0.100607306 0.072810225 0.015983863 0.0808425
-0.16399741 -0.09701943 -0.17421593 -0.1412306 0.20907561 -0.08764067 -0.080991335 0.038996615
-0.0037969893 -0.12413349 -0.014283787 0.1627958 0.16521561 -0.05756933 -0.14550084 -0.024145367
0.16379687 -0.02033579 0.09749769 0.18800637 0.12507129 -0.05564631 0.0040730494 0.014252021
0.04767086 -0.006969571 -0.16504097 -0.124194674 -0.010299845 0.102884404 0.05550598 0.12261035
0.07148765 -0.0110984035 0.07622528 -0.012565153 -0.18419135 0.088479884 -0.01845676 0.05240506
0.037035245 0.18616278 -0.13145398 -0.16293266 -0.07164142 0.031659734 0.049915593 -0.20644933
0.04559086 0.041697435 0.09714538 0.014841685 0.18581495 0.1355385 0.248093 -0.056375585
-0.13164516 -0.12869926 -0.009807425 -0.107657954 -0.0079265535 0.011664152 -0.21725191 -0.046492375
0.04582511 -0.15695623 0.052608497 0.032007035 0.015946724 0.085051864 0.19359696 -0.06772974
0.0898773 0.14034446 0.17311491 0.059970405 0.1926695 -0.10228179 0.09671002 0.024995524
0.14763348 -0.027721131 0.14746155 -0.14742364 -0.016368989 0.14951262 -0.14828825 -0.14461061
-0.03345186 -0.22285348 -0.1530305 0.0039298744 -0.09585901 -0.10576447 0.090576254 -0.121875286
-0.06533758 -0.06574098 -0.02100126 0.01038463 0.04037971 0.14554834 -0.060869988 -0.20794931
-0.16696401 0.13284314 0.029875508 0.002665324 -0.024031108 0.10743298 -0.14026813 0.030304065
-0.12066437 -0.16422908 0.20286922 0.19279091 0.0603783 -0.022018492 -0.18065453 0.105462685
0.10384756 0.005200013 0.0748441 0.028948508 0.17054674 0.06306914 -0.24491256 0.03311949
-0.06735196 0.0188713 0.058565106 -0.016526064 0.12609617 -0.14836878 -0.20607556 0.11787754
0.19773927 -0.028661469 0.16330762 0.16935128 -0.027036384 -0.15010527 0.064373754 -0.00852012
-0.09473394 -0.08327847 0.18036008 -0.10598815 -0.25964862 0.048879433 -0.0909138 -0.07723593
-0.016429665 -0.0733982 -0.044790912 -0.16170746 0.07506489 -0.06897641 -0.3112274 -0.19544473
-0.06823357 -0.006197676 -0.08449195 -0.044810835 -0.16662347 0.026563888 -0.17414844 0.12755048
-0.024740497 -0.083136044 -0.15527077 0.026136607 -0.16592203 -0.08490183 0.19274123 -0.039171766
0.041192323 0.2308215 0.19948375 0.13931987 0.1102378 0.0169933 -0.0041618273 -0.012584875
0.1320335 -0.021691954 0.14929506 -0.012714054 0.18224446 -0.00502605 -0.020692555 0.24931575

fc3out.bias f4 [64]
00000000: 7d74 013e 1990 dfbd d3ea f93a 4322 1d3e
00000010: 44ee 003e a5a9 a83d db2c 493a d438 393c
00000020: 23ac 7cbd be29 14be b67b f73d 5653 d73d
00000030: 6ce2 b6bd d47d 93bd 5c00 933d e4d6 2a3d
00000040: 4541 133b e640 f1bd aec3 6c3d 64a2 f93c
00000050: 294a 103e f619 ec3d 5cf4 b03d 80d5 eabc
00000060: 83db afbd eb27 b6bc d0dc 893b 3a4a 29be
00000070: 65d2 dc3d c5cd 343d 4252 85bd 6363 dbbc
00000080: 9c63 d43d f212 f83d 30e2 adbc 961d 153e
00000090: 8078 25be 678d 4bbd 6dad bcbc 2830 9dbc
000000a0: 39cf 983c 7962 963c d7f7 d1bc 8375 acbc
000000b0: 4666 9f3b f444 003d 593f d83d 76f0 5abb
000000c0: a6b7 2a3e 6cb3 183e c55c 113e 63cd d03c
000000d0: 038f aabd 7a29 1e3b 9504 09be 9302 bdbd
000000e0: 7c94 35bd 689b f7bb a028 2bbd 53b7 d5bd
000000f0: 4160 173e 867f 18bd 735c d7bd ad90 783d
0.12642093 -0.10916156 0.0019067175 0.15345101 0.12590891 0.08235482 0.00076742255 0.011305053
-0.0616876 -0.14469048 0.12084143 0.10513942 -0.08929905 -0.07201734 0.07177803 0.041708842
0.0022469324 -0.117799565 0.057803802 0.030472942 0.1409079 0.11528389 0.08640358 -0.028666258
-0.085867904 -0.022235831 0.004207231 -0.16532221 0.10782317 0.04414155 -0.0650983 -0.02678079
0.103705615 0.121129885 -0.021226019 0.14562067 -0.16159248 -0.0496954 -0.023031915 -0.019188002
0.018653499 0.018357502 -0.025630875 -0.021052128 0.004864487 0.03131576 0.105589576 -0.0033407486
0.16671619 0.14912194 0.14195545 0.025488561 -0.083280586 0.0024133609 -0.13380654 -0.092290066
-0.04433106 -0.0075563677 -0.04178679 -0.10435357 0.14782812 -0.03723099 -0.1051568 0.06068485

fc2out.weight f4 [128, 64]
00000000: 472e 0b3e 0719 d93c a541 703d efed e8bd
00000010: b126 243d 6b12 123e f741 3cbd 7577 513d
00000020: 64ab 42bc 84a5 f63d ace5 f8bd 3390 0b3e
00000030: 1b48 f1bd 0019 4cbd 6b90 263c fbc3 263d
00000040: bfff 913b 46c5 14be a376 2bbe 6d0e 36bd
00000050: c5ff 153d d4ec 3f3e 0262 f3bd 7689 53bd
00000060: 23ba 90bd c271 bebd 7021 823d 07d7 cbbd
00000070: 1b6d 1cbd 3879 00bd 7ca6 c13d 6cef 16bd
00000080: e76b 7f3d 884e 85bc 7467 7d3d 42bc c63d
00000090: 1abd b1bd d298 95bd 4d7b 09be 683f a13d
000000a0: 2307 3c3c 5698 a1bd 181f c0bd d963 b9bc
000000b0: 2743 113e 4fea dcbd 31e6 03be d555 38be
000000c0: 231c 97bd d48a ebbd 139e 453e 6070 65bd
000000d0: bb8d 5f3d bca0 89bc 7a49 f0bc 6c84 58bd
000000e0: 5483 8dbc e1ea 1d3e 5ca8 813d 00a9 ca3d
000000f0: c71b babc ffff fbbd 21c8 563d f596 053d
00000100: 88f8 a33d 2ce3 da3d 941a 873d 0af8 17be
00000110: d842 313d f340 a93d 6363 51bd 3483 f1bd
00000120: 2140 ef3d f113 0dbe fc9f ea3d 5143 19be
00000130: 6a7a 473d 52d0 dc3d cbc0 d83d 3c3f 0b3c
00000140: afeb 1ebe 0c68 85bd f207 aebd a3c9 07be
00000150: b8f9 023e be57 fabc beb5 823d fbb8 b83d
00000160: b299 77bc a51c 293e 594b 43be a532 d43d
00000170: af65 0bbd b4ec 13bc f5b4 883d 1a3f cc3d
00000180: febf 51be 675e c33d eb78 643d 5ae7 89bd
00000190: b282 bb3d 0da5 45bd 0edd 783d c8df 72bd
000001a0: c4d6 613d a42f 063e c9f3 863d c8c4 0bbd
000001b0: 7ef3 603d 5a21 063d 3131 2d3d 31c7 1ebe
000001c0: d137 d23b d4c7 ed3c 2afb afbd 1662 aebd
000001d0: a25e af3d 8b37 14be 9c35 b13d 7bc4 babd
000001e0: fe12 cc3d 11f3 fd3d 2227 b23c c78d 113e
000001f0: 56f2 0c3d c7e5 9fbd 0487 533d 7ddf 9bbd
00000200: 9680 aa3d 9ea0 14be 58f8 96bd 6bf9 8a3e
00000210: 78f9 38bd e421 94bd f4d9 33be 352e 403e
00000220: d07f 22bc 1200 203e 5f47 173d a36d 27bd
00000230: ea2b 94bd 7e62 06bc 42ef 96bd 073e ec3d
00000240: 98a9 b73c b301 0f3e 7650 023d e3cd 973c
00000250: 4386 af3b bab6 1d3e d52a 4e3d bdf7 d03b
00000260: 0627 963c 8136 85be fa99 4f3e 56fb cbbb
00000270: fe4b c43d 4de4 fcbc 4712 4d3d 00c7 b2bc
00000280: 023c c53c 4b7a 903d 1e1a b7bd c938 e7bd
00000290: 7ed6 05bd 79a7 43be 6dbc 7ebd af26 963d
000002a0: 9634 3cbe 169a 37be 0d4f e13d b8a5 46be
000002b0: cf7d 97bd 584c 1c3e 8464 debc fcdf fd3d
000002c0: cd02 5bbd 4a62 e33c 1337 35bb 9e6e eb3c
000002d0: 7935 983c c7a3 01be 09dc dfbc d817 b13d
000002e0: 550d c13c d1ce 73bd 4106 933d 5838 d63d
000002f0: b9ec 1d3e d277 273d 7963 d0bd 258e cdbd
00000300: 65f5 14be f6c3 fbbd ceb9 1dbe c0df 293c
00000310: fc64 9ebc 0498 b4bd 0e48 16be 08cd ffbd
00000320: 71b2 733d ed62 c93d 6206 bebd 893f cc3d
00000330: a5a5 9c3d 373e 213e 1500 8a3d f5bc e73d
00000340: 6bad 91bc 2137 92bc 6885 3a3e 3c24 e23d
00000350: 5fc0 3ebd a76b 85bd b38c b6bd 3c41 7abd
00000360: 5ed2 7a3d d55a 00be f3ee b93d f038 50bd
00000370: a46c 183e 3256 08bd ad10 1dbd 66b8 44bb
00000380: 6528 c3ba e4be c8bc 06c2 2ebe 34fb ccbd
00000390: ffe3 983d 684a 263e d00f debd 9da2 753d
000003a0: 51a3 5dbd d160 9c3d 9266 a2bc c20a 013d
000003b0: e5a2 a83d cfbc b3bd 03c1 fa3c 7a2b 8bbc
000003c0: ef4c 203c 838b 57bd 07d2 993d cd0d f43c
000003d0: 583f 1ebe 6c9f a9bc ee81 813c 023a 203e
000003e0: aae9 2dbd 6bb0 9bbd 20bc 7d3d 9f7f b4bd
000003f0: 4b5e 8bbd eb30 e9bd b913 1bbe be2a ff3d
0.13591872 0.026501192 0.058656354 -0.11373507 0.04007596 0.14264838 -0.045961346 0.051139314
-0.011881683 0.12043288 -0.121531814 0.13629226 -0.11781331 -0.04982853 0.010166268 0.040714245
0.004455536 -0.14528379 -0.16744475 -0.04444735 0.036620874 0.18742687 -0.11883928 -0.051644765
-0.07066753 -0.09299041 0.06354034 -0.099531226 -0.03818999 -0.031365603 0.094555825 -0.036849424
0.062358763 -0.016272798 0.06186624 0.09703876 -0.086786464 -0.07304539 -0.13425942 0.07873422
0.011476311 -0.07890384 -0.09380931 -0.022630619 0.14185773 -0.10786878 -0.1288078 -0.18001492
-0.073784135 -0.11501089 0.19298582 -0.056015372 0.054578524 -0.016800277 -0.029331911 -0.052860662
-0.017274536 0.1542163 0.0633094 0.098955154 -0.022718323 -0.12304687 0.05243695 0.032614667
0.08006388 0.10687861 0.06596866 -0.14840713 0.043276638 0.08264341 -0.051120173 -0.11792603
0.116821535 -0.13777138 0.11456296 -0.14967085 0.048700728 0.107819214 0.10583647 0.008498963
-0.15519594 -0.06513986 -0.08497609 -0.13260512 0.12790573 -0.030559417 0.06382321 0.09019657
-0.015112327 0.16514833 -0.19071712 0.10361222 -0.03403252 -0.009028602 0.0667514 0.09972973
-0.20483395 0.0953949 0.05577938 -0.0673358 0.091557875 -0.048253108 0.06075769 -0.059295446
0.055136457 0.13104111 0.06589467 -0.034123212 0.054919712 0.03274665 0.04228324 -0.15505673
0.0064153452 0.02902595 -0.085928276 -0.08514802 0.08562972 -0.14474313 0.08652803 -0.09119507
0.0996456 0.12399877 0.021747176 0.1421424 0.034410797 -0.078074984 0.051642433 -0.076109864
0.08325307 -0.14514396 -0.073715866 0.27143416 -0.045159787 -0.072330266 -0.17563611 0.18767627
-0.009918168 0.15625027 0.0369333 -0.040876042 -0.072349384 -0.008202193 -0.073698536 0.11535268
0.022419736 0.13965492 0.031815015 0.018530792 0.0053565814 0.15401736 0.050333817 0.006377189
0.018329155 -0.26018146 0.20273581 -0.00622503 0.09584807 -0.030870581 0.05006626 -0.021823406
0.024076466 0.070545755 -0.08940528 -0.11290128 -0.03267526 -0.19106854 -0.062191416 0.07331597
-0.18379435 -0.17929873 0.11001406 -0.19399154 -0.07397043 0.15263498 -0.027147539 0.12396237
-0.053469468 0.027756829 -0.0027651235 0.02873927 0.018580185 -0.12660132 -0.0273266 0.08647126
0.023565928 -0.059523407 0.07178927 0.104599655 0.15422334 0.040885754 -0.10175223 -0.100368775
-0.14546736 -0.12293236 -0.1540291 0.010368288 -0.019335262 -0.08818057 -0.14675924 -0.124902785
0.059496347 0.09833322 -0.09278561 0.09973056 0.07648782 0.1574639 0.06738297 0.113153376
-0.017782887 -0.017848553 0.18214953 0.110420674 -0.046570178 -0.06514674 -0.08913555 -0.06109737
0.061235778 -0.1253465 0.09078779 -0.05083555 0.14885193 -0.033285327 -0.03834598 -0.0030017137
-0.0014889358 -0.024505086 -0.17066202 -0.10008851 0.07465362 0.16239321 -0.1084286 0.059969533
-0.05411083 0.07635654 -0.0198243 0.0315044 0.08234195 -0.08776247 0.030609613 -0.016988505
0.009783967 -0.052623283 0.07510763 0.029791737 -0.15453851 -0.020705901 0.015809026 0.15647128
-0.042459168 -0.076020084 0.061946988 -0.08813404 -0.06805094 -0.113862835 -0.15144242 0.12459324

fc2out.bias f4 [128]
00000000: b5e9 f1bd 47f8 cb3d 546f 113d c858 78bc
00000010: dc6b d43d af7f d5bd 8a1f 07bc 4577 97bd
00000020: 3c90 abbd 12a4 91bd fced b4bc 6bac 903d
00000030: 6a0a cf3d d2e9 c6bc 4b87 eb3c 8622 d6bd
00000040: dd18 a63d 467c b53c dc60 183d f391 c4bd
00000050: 2bfa f3bc d670 043c 5d7d af3c ab15 723c
00000060: 55de d7bd 98bd 19bd 4eac 2fbd 4bc1 b43c
00000070: 0227 8e3c 0dc7 853d 815a 743d 7867 433d
00000080: 515a b5bd 6589 e73d 76d2 5ebd db6e d23d
00000090: 9ce7 7dbd ee66 3abc f8bb 013d 2c06 0abc
000000a0: 56c1 b9bd 2ee7 97bd 72e5 963d eb42 22bd
000000b0: b103 3a3d a9ed 663c c357 3c3a 65f1 bc3d
000000c0: 4149 c6bd 4d7d 0abe d024 bc3c 7fa4 013e
000000d0: 8cfc ee3d e28f 1e3d 228b d93d 1670 92bc
000000e0: cc54 003b b6f4 1a3c 9836 d5bd 4f35 1bbe
000000f0: 8d48 52bd 12e3 eebc 78d2 fcbc d56c 3d3c
00000100: 15d1 ff3d 998d b4bd 38c2 de3c c9fd 683d
00000110: 03f2 bfbd e690 32bd d8c7 7f3d a00b 44bd
00000120: d24d 2dbd 9151 61bb 9ef9 a8bd e7dc 02bd
00000130: 5adb e13c 93d9 babc 6079 32bd a0c4 ab3d
00000140: f417 f43b 5332 0fbe e392 6e3d 7711 99bd
00000150: 3986 0abc b2cc ce3d 4f29 cfbd e881 afbc
00000160: 4f8b 5ebd bf50 233d fd43 3bbd 682a d73d
00000170: 1ebd cbbb 77b4 e0bd 41b3 0d3c 3436 39bd
00000180: 99bf e43c ddfc eebd cda7 3d3d ff84 d2bd
00000190: c64c e63d 82d1 7bbd 465e 613d eae4 643c
000001a0: f13d 96bc 8f47 f73c d0e6 eb3d 5053 e13d
000001b0: 9f57 c73d f695 853d e918 acbc 5a64 083d
000001c0: e6da 5fbd 790f debc 560f 1a3d 547c dabd
000001d0: 870a 873c bb55 b53d 8ee4 1cbc c461 973d
000001e0: d8e8 0dbd e9cc ea3d a2c8 83bd 7b01 413d
000001f0: da3f 8bbd a283 733c 273d dbbd 0c69 5abd
-0.11812154 0.099594645 0.03550656 -0.015157886 0.10372135 -0.10424744 -0.008247266 -0.07395796
-0.0837712 -0.07111372 -0.022086136 0.07064136 0.10109408 -0.024281416 0.028751036 -0.104558036
0.08110211 0.022153985 0.037201747 -0.0959815 -0.029782375 0.008083543 0.021422083 0.014775674
-0.10540453 -0.037534326 -0.042888932 0.022064826 0.017352585 0.065321065 0.059656624 0.047706097
-0.08855117 0.11305503 -0.05439993 0.1027505 -0.061988458 -0.011377079 0.0316734 -0.008424323
-0.09070079 -0.07417141 0.07367982 -0.0396146 0.045413677 0.0140947485 0.00071847084 0.0922573
-0.09681941 -0.13524361 0.022966772 0.12660407 0.11669263 0.038711436 0.106222406 -0.017875712
0.0019581793 0.009457758 -0.104108036 -0.15157054 -0.05133872 -0.02916101 -0.030862078 0.011561592
0.12491051 -0.0881607 0.02719222 0.056882653 -0.09372332 -0.043595217 0.062446445 -0.04786265
-0.042310543 -0.0034380893 -0.08250736 -0.03194895 0.027570415 -0.022808826 -0.043572783 0.083871126
0.0074491445 -0.13984041 0.05824555 -0.07474034 -0.008454853 0.10097636 -0.10115301 -0.021424249
-0.054332074 0.039871927 -0.045719136 0.10506135 -0.006217613 -0.10971921 0.0086486945 -0.045217708
0.027923392 -0.116693236 0.046302605 -0.10279273 0.11245112 -0.0614791 0.055021547 0.013970593
-0.018340083 0.030185489 0.11518633 0.11002219 0.09733509 0.065227434 -0.021007972 0.033298828
-0.054652117 -0.027106987 0.03761228 -0.10668245 0.016484512 0.088542424 -0.009575976 0.07391694
-0.034645885 0.11464865 -0.06434752 0.047120553 -0.06799288 0.014862927 -0.10705023 -0.053322837

fc1out.weight f4 [257, 128]
00000000: 2787 84bd 841c 453c e234 403e 9fe6 b73c
00000010: e725 a1bc 4545 273d 3867 b73c 3dc9 4cbd
00000020: 8b19 03bb 47fe 4cbd 3c6a cf3d 0b74 babd
00000030: 1909 91bd e5cc e3bd 929e 003e 01e4 b9bd
00000040: de2d b2bc 9eb6 a8bd bd63 ca3d 5b5d 653d
00000050: 21af 353c beee 82bd 9422 743e 535c 103d
00000060: 9bf0 6b3d 2066 f03d 80b7 0b3c 206d 2cbd
00000070: 2715 cb3c 4deb 45bc 2615 59bd f7de e83d
00000080: 9a58 c33d 7d03 b2bd 7c32 6cbb aba8 9d3d
00000090: fc2a e73d 11e9 3dbd f372 ebbd c31b 0d3e
000000a0: b428 f6bd 70fc 973b 5938 36be fb7e 6c3d
000000b0: a0f3 bd3d bdaa 0c3e d257 32bd 8e71 b43d
000000c0: 2d6f 213e c851 993c b452 12bd 5df0 bdbd
000000d0: e5b2 a93d cd28 0b3e 3385 0e3e 1e9a d53c
000000e0: a5b7 49be 1c7c fc3d c2cb 9fbd 457c c93d
000000f0: 8dc6 9abd 2c40 9ebd c06d b0bd 7cf9 0a3e
00000100: f100 cdbd 57cb 8a3e b26d 45bd ec82 78bd
00000110: fa0b 963d 91d6 383e 9a1c 8f3c 39b2 143d
00000120: b59b aebc 21e0 e3bd 5a44 843c c6b7 153e
00000130: 4f2c 7b3d b349 d63c 4090 70bd e5bd 3a3e
00000140: 2aff e8bd b705 f6bc 2115 cbbc ee87 ec3c
00000150: ecf7 72bd 592e be3c e104 273d 43be f2bd
00000160: f74d 5d3d f524 71bc 00c8 da3d 2c57 7c3d
00000170: 4640 ed3d 7866 d83d 10d9 823d 1292 a4bd
00000180: 378c 28bd 9123 0ebd 7e97 2cbd eaa6 91bd
00000190: ffa7 0a3d 8cfd 463c f32e 49bb 6f13 05bd
000001a0: 8fc4 19be 3e3f 363d 39d0 ab3d 6fae a9bd
000001b0: 5f88 113f 93b3 e53d 5bc9 12bd 80e9 243e
000001c0: cf38 0c3e 6668 b43d e3d5 eebd bf80 11be
000001d0: ee67 f2bd 05ea 1e3d 0e3d d8bd ba17 4cbc
000001e0: 93de c8bc 1f2e f63b 8f3f 253d b374 443d
000001f0: 0abc d0bd 4961 5a3e fb70 763d 2ab5 41be
00000200: 441f 0ebe 69d6 f6ba 7185 0e3e 9c01 da3c
00000210: e5ec 313d 8c30 a23c 0415 59bc 3613 a0bc
00000220: 4ce8 d03d 43ba 733c dee5 ea3d af4e 0abe
00000230: 41d0 4dbb 081b f93c a0bd 9b3d 46b4 aabc
00000240: 68f6 debd 1151 7cbd 14d0 c33d b7de 37bd
00000250: c9c4 85bd c874 16bd ec74 2c3e 61cd de3d
00000260: 6f65 03bb 1ae6 173e 29b9 c3bb 9033 8ebd
00000270: fa58 a43d ea69 a0bd 7b50 d3bd 9ccf f53d
00000280: afa6 243d 3e1f d9bd 1ac8 53bd 2e8e 033d
00000290: 5764 373d ea13 883d 94fc 17be cddc 583d
000002a0: 82eb a7bd c451 633c bd88 34be 7b76 073e
000002b0: 1341 6ebc b0bd ba3d 0c2c 993d 6edc 373d
000002c0: 5059 723e 4e34 233d 43fd b2bd a260 a1bc
000002d0: 830f c43d a6e1 013e e923 9f3c aadc 5d3d
000002e0: ea06 3fbe 3f4c 3a3e 7b0a d4bd f60d 013c
000002f0: 4cf6 d2bd 2a07 a8bd c866 c7bc b8af 193e
00000300: 9beb 34bd 7c08 ad3e db52 2cbe fb61 aebb
00000310: dc49 e33d 9d24 b23d 5c7b febd 793d bb3c
00000320: 74c2 7bbb 5629 debd 4a3d 2b3d 2662 c93d
00000330: 3778 cd3c 1b30 7b3c 2e5e d7bd 9dd3 173e
00000340: cd58 53be 17b1 013e 5856 b7bd cf70 163d
00000350: 3cdb 0dbe 902a 873d 7ebd 423d 09e6 a1bd
00000360: 016c 1c3d 4a01 0fbe e129 2d3d 0849 39bc
00000370: 1548 013e f7d4 a23c 4372 043c b4cb 63bc
00000380: 38ce c0bc 7f93 2a3d 84ee 7dbd dd5e 643d
00000390: b6d8 adbd 2ba1 11be 036e 06be 7eea d43c
000003a0: 60f8 82be fe53 5bbd 0cf9 793c 4318 11be
000003b0: ab4d 0e3f 4b04 f43d 8877 abbd d083 d43d
000003c0: aaa8 073d fb5d 0f3e a809 c23a b283 74bd
000003d0: 3350 b8bd b048 fdbc 59f9 f1bd 8833 d0bc
000003e0: ca8f 143c 4f7e f0bc cacf a13d a753 1a3e
000003f0: 3eee 8cbd 1a95 843e 1325 edbc 1122 15be
-0.06471091 0.012030724 0.18770173 0.022448836 -0.019671394 0.040837545 0.022388086 -0.049996603
-0.0020004238 -0.050047185 0.101276845 -0.09104165 -0.07081813 -0.11123065 0.1256049 -0.090766914
-0.021750387 -0.082379565 0.09882305 0.055997234 0.011089117 -0.06393193 0.23841316 0.035244297
0.057602506 0.11738229 0.0085276365 -0.042096257 0.02479036 -0.012080026 -0.052998684 0.11370652
0.09538384 -0.086920716 -0.0036040833 0.076981865 0.112874955 -0.046364848 -0.11496534 0.13780122
-0.12019482 0.004638247 -0.17794932 0.057738286 0.092749834 0.13737006 -0.043540783 0.08810721
0.15765066 0.018715754 -0.035723403 -0.09274361 0.082860745 0.13589783 0.13917999 0.026074465
-0.19698961 0.123283595 -0.078025356 0.09838156 -0.07557402 -0.077270836 -0.08614683 0.13571733
-0.10009945 0.2710826 -0.048200317 -0.06067173 0.07326503 0.180506 0.017469693 0.03630278
-0.021314481 -0.111267336 0.016145874 0.14620885 0.061321553 0.02615819 -0.058731318 0.18236502
-0.11376794 -0.030032022 -0.024790348 0.02887341 -0.059318468 0.02321546 0.040776137 -0.11852696
0.05402943 -0.014718284 0.10682678 0.06160657 0.11584525 0.10566419 0.06389058 -0.08035673
-0.041149344 -0.034701888 -0.04213666 -0.071119145 0.03385162 0.012145411 -0.003069815 -0.032489236
-0.15016387 0.044493906 0.08389325 -0.08285224 0.5684871 0.11215892 -0.03583656 0.16104698
0.13693546 0.08808975 -0.116618894 -0.14209269 -0.11836229 0.038797397 -0.1055852 -0.012456829
-0.024520194 0.0075128223 0.040343817 0.047962856 -0.101921156 0.21326174 0.06016634 -0.18916765
-0.13879114 -0.001883221 0.13918091 0.026612096 0.04343881 0.01979854 -0.013249639 -0.01954041
0.10200557 0.014875951 0.11469625 -0.13506578 -0.0031404647 0.030408397 0.076045275 -0.020837914
-0.10886842 -0.06160075 0.09561172 -0.04489013 -0.065316744 -0.036732465 0.16841477 0.10879017
-0.0020049473 0.1483387 -0.0059730005 -0.069434285 0.080247834 -0.078327015 -0.10318085 0.12002489
0.040198024 -0.10601662 -0.051704504 0.032118015 0.044773426 0.06644423 -0.14842445 0.052944947
-0.081992164 0.013874475 -0.17630287 0.1322879 -0.014541882 0.09118211 0.074791044 0.044887953
0.23666883 0.039844804 -0.08739712 -0.019699398 0.09573271 0.12683734 0.019426303 0.05416552
-0.18654981 0.18193148 -0.103535615 0.007876864 -0.10300884 -0.082044914 -0.024341002 0.15008438
-0.044170003 0.33795536 -0.16828482 -0.005321739 0.11098072 0.0869839 -0.12425873 0.02285646
-0.0038415464 -0.10847728 0.041806497 0.098331735 0.025081737 0.015331293 -0.1051601 0.14826818
-0.20639344 0.1266521 -0.08952016 0.036728676 -0.13853163 0.06599915 0.047543995 -0.07905204
0.038188938 -0.13965335 0.042276267 -0.011308916 0.12625153 0.01987694 0.008083883 -0.013903547
-0.023535833 0.04164457 -0.061995044 0.05575453 -0.084886 -0.14221637 -0.13127904 0.02599072
-0.2558012 -0.053546898 0.015257131 -0.14169411 0.5558726 0.11914881 -0.08372408 0.10376704
0.033119835 0.14000694 0.0014803903 -0.059695907 -0.08999672 -0.03091845 -0.118151374 -0.025415197
0.009067485 -0.029357104 0.07900961 0.15070973 -0.068813786 0.25895005 -0.028948342 -0.14563777
