build_128,64,16/.brain.pth (torch, 343643 bytes, 12 tensors)

fc1.weight f4 [128, 257]
000000 54 48 a1 bc 54 4a eb bb 0f 28 0e bd 38 bb c4 bc
       -0.019687809 -0.0071804915 -0.03470617 -0.024015054
000010 be de 96 bd 07 6d 85 3c 6a a9 ac bd d4 8f 2e bc
       -0.073667035 0.01628734 -0.08430751 -0.0106544085
000020 24 c2 76 bd cf 9f ef 3c 92 de 86 bc 2a c7 33 3d
       -0.06024374 0.029251007 -0.016463552 0.04389111
000030 bc 05 41 3d 11 b2 b6 3c 4a de 41 3d 7e ce 51 bd
       0.04712461 0.022301706 0.047331132 -0.051222317
000040 07 21 3d 3c 45 e1 b5 3c fd 9b e2 bc 23 23 4e 3d
       0.011543519 0.022202143 -0.027662272 0.050326478
000050 3a 75 56 3d 6f 55 26 bd 2b e5 42 bd 99 99 88 3c
       0.05235789 -0.04060882 -0.047581833 0.016674804
000060 d6 2b 5b bd fc 12 ed 3b 3e cd a7 bc 4a 3e 29 bd
       -0.053508602 0.007234929 -0.02048361 -0.04131917
000070 a9 b9 26 bd d0 dc 8b 3b 4f d8 49 3c f4 0a 82 bd
       -0.040704403 0.0042682663 0.012319638 -0.063497454
000080 69 72 7d bd 78 aa 57 b9 17 e3 6c bd b0 3b 82 bd
       -0.06187669 -0.00020567502 -0.057833757 -0.06359041
000090 2a cf 02 bb 2b cc 05 3a 57 84 6c bc 40 dd e1 bc
       -0.0019959905 0.0005103971 -0.014435849 -0.02757132
0000a0 09 d7 2e bc be 5b 39 bd e8 1c 29 bd 86 35 5c bd
       -0.010671386 -0.045253508 -0.041287333 -0.05376198
0000b0 f6 21 33 3d f2 8d 7e 3c 1e 10 10 3d 7b 05 82 bc
       0.04373356 0.015536772 0.03517162 -0.015871754
0000c0 b5 62 e1 3c cd 23 1c bd ec 5f b2 3b b3 e0 3c 3d
       0.027512887 -0.03812008 0.0054435637 0.046112727
0000d0 bb ec 92 3b 86 44 a6 3c 24 21 25 3d 4d 5f 7c bd
       0.004483787 0.020296346 0.04031481 -0.061614323
0000e0 06 6f 36 3d a0 4f 8d bc 12 1e ad bb 32 56 d0 bc
       0.044539474 -0.017249882 -0.0052831257 -0.025431726
0000f0 1c 97 21 3c bb 60 8f bd 1e 5a df 3c b0 18 86 3b
       0.009862687 -0.07000872 0.02726465 0.0040922984
000100 19 74 1a 3d e6 2b a1 3a 91 8c 7b 3a 26 08 bb bc
       0.037708376 0.0012296408 0.0009595836 -0.022831034
000110 8b 00 36 3d ea b7 25 bd 6c 81 3d 3d 4a 01 36 bc
       0.04443411 -0.040458597 0.046266004 -0.011108706
000120 64 a5 2c bd da 83 45 bc 63 c3 68 3d 3a f0 68 3d
       -0.042149916 -0.012055362 0.05682696 0.056869723
000130 67 c8 73 bd 58 00 0c bd ae 14 19 3d 29 47 db 3c
       -0.05951729 -0.034180015 0.037373237 0.02676733
000140 6a 7c c1 3c 99 ca 5f bd ea 95 83 3c e5 d4 41 3d
       0.023618896 -0.05463657 0.016062696 0.047322173
000150 ff 68 0f 3d 40 9b 5f 3b 8e 33 6f bd 35 b5 23 3c
       0.03501224 0.0034119636 -0.058398776 0.009991934
000160 2f 67 70 3d 46 f5 84 3d 09 2a 67 bd 5b 54 2e bd
       0.058692154 0.06492095 -0.056436572 -0.042560916
000170 ab df 24 bd e0 b1 b5 bc dd 6e df 3c 17 57 c4 3c
       -0.04025237 -0.022179544 0.027274543 0.023967309
000180 31 12 8c bd 9e c2 14 3d 64 08 6a 3c 13 65 66 bd
       -0.06839407 0.036318414 0.014284227 -0.056248736
000190 74 f4 60 3d 61 30 b8 3c 75 38 12 bd b2 81 66 bd
       0.05492063 0.022484006 -0.035698373 -0.05627603
0001a0 96 40 6d bd 8c 06 bc 3c 28 a6 8c bd 21 6e 28 bd
       -0.057922922 0.02295234 -0.06867629 -0.041120652
0001b0 85 54 75 3c c2 0e d5 3c b3 0e 56 bd 8b e2 dc bc
       0.014973764 0.026008014 -0.052260112 -0.026963493
0001c0 2e f8 8e bc 81 19 ee bc 1c 32 5b bc ac fb 1e 3d
       -0.017452326 -0.029064896 -0.013378646 0.03881423
0001d0 0b 82 70 bc d2 a7 15 3d b0 0b 52 3d 73 73 53 bd
       -0.014679442 0.036537 0.051280677 -0.051623773
0001e0 ac 1b 86 3c 73 7d 0c bd 07 bf 39 bd 33 49 4f bc
       0.016370617 -0.034299325 -0.045348193 -0.012651729
0001f0 19 cd 33 3c bb 23 eb bc 6e 9d 50 3d f5 57 ba bc
       0.010974192 -0.028703561 0.050931387 -0.02274702
000200 6d ce a3 3c 45 9a ce bc 96 da 21 bd c8 b1 a0 3c
       0.019995892 -0.025220046 -0.0395151 0.019616023
000210 7a e5 7d bd 3e fc ea bc b2 fc 8f 3c 19 bd c8 3c
       -0.061986424 -0.028684732 0.01757655 0.024504231
000220 7d 93 78 bd 6f 94 93 3c 50 da 90 3c ed e0 93 bc
       -0.06068753 0.018015115 0.017682225 -0.018051589
000230 90 8f 09 3a 02 0f 5d 3c 4d ba 1e 3b 18 40 a3 bc
       0.0005247528 0.013492348 0.002421993 -0.019928023
000240 83 30 e2 3c 02 8e 69 bc 35 51 a7 bd 8b 0a a9 bc
       0.027611023 -0.014255049 -0.08169786 -0.02063491
000250 6a 5f b4 bc 90 ad 9e bd 18 50 59 bd d8 22 a5 3c
       -0.022018153 -0.07747948 -0.0530549 0.020158216
000260 84 3c 99 bd cb d7 f0 3b dc 5b 2d bd 61 b8 39 3d
       -0.074822456 0.0073499433 -0.042323932 0.045341853
000270 72 23 b2 bb a4 e1 17 bd d0 3c 58 bd 13 bb 00 bd
       -0.0054363543 -0.037080422 -0.05279237 -0.031428408
000280 05 3c bf bc 3a 3b 12 3d 63 78 0d 3d b2 a9 82 3d
       -0.02334405 0.035701014 0.034538638 0.06380023
000290 02 18 cc bb c5 4d f2 3c c0 bb bf bc fe e2 67 3b
       -0.006228448 0.029578099 -0.023404956 0.00353831
0002a0 00 6b 97 3d a4 7b 3c 3d fb c3 0c 3d 4c 3c 55 3d
       0.073934555 0.04601635 0.03436659 0.052059457
0002b0 05 0c 6d 3d b8 58 db 3c a9 39 87 3d f0 72 f8 bc
       0.05787279 0.026775703 0.06602795 -0.030328244
0002c0 ba 22 d1 bc 39 de 3a 3d bf 1e 07 3d c3 b8 7b bd
       -0.025529254 0.045622084 0.032988306 -0.0614555
0002d0 2d d0 9b bc 26 f5 c4 bc da c4 2a bc 21 2d 86 3c
       -0.019020164 -0.024042677 -0.01042291 0.016378941
0002e0 be 8f 77 bd 14 14 ce 3c ae e2 ed bb 8e 68 73 bc
       -0.060439818 0.025156058 -0.0072596883 -0.014856471
0002f0 0b 0e 42 3d 7c 42 c6 3c f3 c5 0c bc e9 cf 37 bd
       0.047376674 0.024201624 -0.008592117 -0.044876013
000300 55 d1 20 bd e6 10 25 3d a7 18 07 bd a2 d6 06 3c
       -0.039262135 0.04029932 -0.032982495 0.008229883
000310 b9 0d ff bc be 0d d9 3c 3a ae 3c bc e7 8d 88 39
       -0.031134473 0.02649581 -0.011516148 0.00026045667
000320 1d 69 8b 3c 5a 0c 19 bd 15 32 ee 3b a7 53 80 3b
       0.017017895 -0.037365295 0.007269154 0.003916222
000330 82 e2 0c bc 63 83 ad 3c 4d ff 86 3b 70 e1 28 3a
       -0.008598926 0.021180814 0.0041197897 0.0006442284
000340 1b 0b 1a bc 39 b0 ab bc 7f 54 cd bc 7e 8f 7e bc
       -0.009402062 -0.020958053 -0.025064705 -0.015537141
000350 1b de 9e 3c bd f4 d1 3c cd e2 80 3c 08 f9 89 bb
       0.019393018 0.025629396 0.015733147 -0.004210595
000360 f0 7e 3b bd 8f b5 74 3d c5 b0 7f bc 43 21 21 bd
       -0.045775354 0.05974346 -0.01560611 -0.03933836
000370 33 a5 f9 3c ea fa 82 bc 0e fe 6d bd cc 8f 1d 3d
       0.030474281 -0.015988786 -0.058103614 0.038467214
000380 1e c1 12 bd 06 06 db bc 00 06 a9 3c 9d 31 3c 3c
       -0.035828702 -0.02673627 0.020632744 0.011486438
000390 50 6b 0e 3d 3c 38 b5 3c 56 b0 8b 3c b7 79 35 bd
       0.03477031 0.022121541 0.017051857 -0.04430553
0003a0 80 ce 5e 3d 49 c2 e4 3c fc 5e 14 3d 04 67 d4 bc
       0.054396152 0.027924674 0.036223397 -0.025928028
0003b0 37 d7 09 bd 2a d9 b8 3c 02 fa fa bc 38 eb 3c 3c
       -0.03365251 0.02256449 -0.030636791 0.01153069
0003c0 49 e3 12 3c 2d 0f e7 3a 8d 5a 81 3c 00 43 7c bd
       0.008965322 0.0017628424 0.015790248 -0.061587334
0003d0 9e 7c 2c 3c c5 84 86 3b ba d0 07 bd 57 56 94 bb
       0.010527758 0.004105183 -0.03315804 -0.004526894
0003e0 05 f7 90 bc 81 f5 4c 3d 66 a2 2a bd de 24 0e 3d
       -0.017695913 0.05003882 -0.04165878 0.034703128
0003f0 b1 a0 b6 ba 8d ff 37 bd 6c be fc bc 94 4b 74 3d
       -0.0013933388 -0.044921447 -0.030852519 0.05964239

fc1.bias f4 [128]
000000 eb 36 51 be fb a0 35 be 27 8f a0 3d 78 75 89 3e
       -0.20431106 -0.1773719 0.07839804 0.26847434
000010 14 bc 7a 3e 79 25 bf bd f6 a0 40 bd 03 0d 70 3e
       0.24485809 -0.09333319 -0.047028504 0.23442464
000020 8b 19 3e be d5 42 eb bd 08 99 8f 3e 89 73 fa bd
       -0.18564431 -0.114873566 0.2804644 -0.12229068
000030 8a e4 28 3e cf d3 1f 3e 8e e8 a0 3d c8 ab ad 3e
       0.1649343 0.15608142 0.07856856 0.3392012
000040 fd a0 59 3e 71 55 9a bd 71 b3 33 bd 45 10 9f 3b
       0.21252818 -0.07535828 -0.0438723 0.0048542344
000050 62 93 21 3e bb d7 81 3e cc 68 03 3e 58 ab 1b be
       0.15778878 0.25359902 0.12832946 -0.15202081
000060 73 b1 60 bd d3 0c b9 bd db 99 4f be 7e 4c 0a be
       -0.05485673 -0.09035649 -0.20273535 -0.13505742
000070 1d 32 78 3e 89 61 5e 3d ec 44 67 be 97 be 83 bd
       0.24237867 0.054292236 -0.22584885 -0.064328365
000080 14 b3 54 3e 42 59 0c 3e bf 79 d0 3d 0a 15 92 3e
       0.20771438 0.13705924 0.10179471 0.28531677
000090 56 7b e9 bd 00 44 45 be 65 6d 5c 3e e7 38 57 3e
       -0.114004776 -0.19264221 0.21526106 0.210178
0000a0 31 c4 6e 3e f1 5a ed 3d c0 5b 19 be e2 c7 f5 3d
       0.23317029 0.11589611 -0.14976406 0.12001015
0000b0 60 9d f0 be 53 44 c8 bc 74 14 cc 3c 46 fc 3d be
       -0.46995068 -0.024446642 0.024912097 -0.18553266
0000c0 d6 73 41 bd 39 5b 44 be 55 4b 8f 3e 63 c1 5c 3e
       -0.04722961 -0.19175424 0.2798716 0.21558146
0000d0 42 ad 25 be d2 db 3f be 2e 9f 23 3e 15 c3 96 be
       -0.16179374 -0.18736199 0.15978691 -0.2944571
0000e0 1c d9 87 bd a2 b3 63 3b b6 ad f7 bd d3 b4 91 3e
       -0.06633207 0.003474452 -0.120936796 0.2845827
0000f0 df 12 d6 3b 92 a2 eb bd a5 85 74 bd ae 9d 39 3e
       0.0065330113 -0.11505617 -0.059697766 0.18126556
000100 a1 af 0d 3e ce e4 10 3c 4a d5 cb bc b9 58 b5 bc
       0.13836528 0.008843614 -0.024881978 -0.022137033
000110 42 a3 f0 3b 0a 2b 58 3c d9 eb cc bd 0e 89 98 3b
       0.0073436806 0.013193855 -0.10005922 0.00465501
000120 1b d5 00 be 6d 7a 72 3e df 28 63 bd d0 5b 39 3e
       -0.12581293 0.23679514 -0.0554589 0.1810143
000130 fc 3d 22 3e 2b 8c 68 3e 0f 41 8d 3d 05 a3 7b be
       0.15843958 0.2270972 0.068971746 -0.24573906
000140 b6 41 5b be 85 a1 41 3e 19 33 2b be 20 77 61 be
       -0.21411785 0.18909271 -0.16718711 -0.22018099
000150 f2 78 8e be b0 c1 4d 3c f2 49 0b bd 68 30 28 be
       -0.2782665 0.012558386 -0.034006067 -0.16424716
000160 ba 81 c6 3d 35 36 a5 3e 66 c4 c4 3d db ff 44 3d
       0.09692712 0.3226792 0.096077725 0.048095565
000170 8f bb 17 be 7d 43 28 be ad a5 e2 bd ce 18 d0 bd
       -0.14817642 -0.16431995 -0.110667564 -0.10160981
000180 2d 1c 57 be 0f ba 58 3e 3f 49 40 3e d0 e5 b2 bc
       -0.21006842 0.21164726 0.18777941 -0.021838099
000190 e1 83 37 3d 26 a0 02 3e cf 58 d6 bd 74 50 50 be
       0.044803504 0.12756404 -0.10466158 -0.2034319
0001a0 f9 43 39 be 76 4c 2a 3e e7 33 9f 3c 3c 30 8b 3e
       -0.18092336 0.1663073 0.019433929 0.27185237
0001b0 f9 6a 4c be 9c b7 58 bd 08 d7 58 be 33 54 e6 3d
       -0.19962682 -0.05290948 -0.21175778 0.112465285
0001c0 13 b4 01 be 1f 31 f3 3d 86 13 8d bd 49 85 c5 bd
       -0.12666349 0.118746035 -0.068884894 -0.09644563
0001d0 25 c0 be 3d 62 d9 f8 bd cd 31 08 bd d3 db 6b 3b
       0.093139924 -0.121508375 -0.03325062 0.003598918
0001e0 a7 e1 25 3d 45 7d 13 bd 7c 83 c3 bb 82 0b 98 bd
       0.040498402 -0.03600814 -0.005966602 -0.0742407
0001f0 33 f5 de 3c f9 c4 d6 3d f5 ee d9 bd cb b0 41 be
       0.02721653 0.10486788 -0.106412806 -0.18915097

fc2.weight f4 [64, 128]
000000 84 01 4b 3d 91 3c c8 bc a8 01 b6 bc 26 6b 45 bd
       0.049561992 -0.024442943 -0.022217587 -0.048197888
000010 fe 9d 8a bd 8b 6c bf bd 1a d9 59 3d 0a 47 91 bc
       -0.06768416 -0.09346875 0.05318556 -0.01773407
000020 c0 f9 2a 3d 0e 48 83 3d 91 48 66 bc 7a 0c dd bc
       0.041742086 0.06410228 -0.014055387 -0.026983488
000030 9c b4 94 bd f3 8f c7 3c de d5 73 3c ef d5 3e 3d
       -0.07261011 0.024360633 0.014882533 0.04659074
000040 96 39 bd 3d 7d 55 3b 3c ff 12 13 3d c7 1e b2 3b
       0.09239499 0.011433956 0.035906788 0.005435798
000050 ac 64 39 3d fc ab bf 39 38 09 b5 3d 2d 78 c0 3c
       0.045262024 0.00036558497 0.08839649 0.023494804
000060 5e 73 20 b9 4c 0d 30 bc ef c3 f3 3d fe b2 b1 3d
       -0.00015301767 -0.010745358 0.11902606 0.08676718
000070 da 6e 1e bd b3 d5 b6 bc 40 95 18 3c 71 a9 6c bc
       -0.038679935 -0.022318697 0.009312928 -0.014444695
000080 9e a8 17 bd f8 72 c1 bd 4b da b9 3d a4 63 82 3d
       -0.03702604 -0.09445757 0.09074839 0.06366661
000090 4a 92 f8 3c 6a 81 67 b9 5d cf 6d bd bf c2 ef 3d
       0.030343194 -0.00022078087 -0.058059085 0.11707067
0000a0 f3 94 e8 bc 98 03 d7 bd 45 eb 07 bc 5a e7 4b bc
       -0.028391337 -0.10498732 -0.008295839 -0.012445295
0000b0 0b 2a a2 bc 22 f7 03 bb bd e9 91 bd c6 cd 8d bc
       -0.019795438 -0.0020136316 -0.0712466 -0.017310034
0000c0 4d 6a 01 3d 7f ec 8b bd c2 41 b4 3d 16 02 0b bd
       0.031595517 -0.068322174 0.08801605 -0.033937536
0000d0 93 c2 3e 3d 83 f0 3b bd 0d c3 83 3d f7 75 da bc
       0.04657228 -0.045883667 0.06433687 -0.026667578
0000e0 fc 58 3c bd 35 7b bb 3d eb 95 36 bd 14 9b 31 bd
       -0.0459833 0.09154359 -0.044576567 -0.043360785
0000f0 06 08 b1 bc a4 da 0b 3d dd bc 19 bd 17 77 f9 bd
       -0.021610271 0.03414406 -0.03753363 -0.12180918
000100 39 1c 8c bc 11 33 a9 3d e4 2d 12 be 34 6f fe 3c
       -0.017103301 0.08261693 -0.14275318 0.031058885
000110 3e ec 46 bd a7 3e 8e bd 11 9b 92 3d ae ac b6 3d
       -0.04856514 -0.06945544 0.07158483 0.08919655
000120 46 51 2f bd af 38 7c bd ed fa 45 3d d2 e4 71 bc
       -0.042802118 -0.061577495 0.048335005 -0.014764028
000130 0d 39 37 bd fb ba 19 3d 60 57 4e 3b b8 8e a0 bd
       -0.044732142 0.037531834 0.0031485185 -0.078397214
000140 cd 11 af 3d 5c bc ae bc bf b8 ed bd 29 4f b4 3d
       0.08548317 -0.021330051 -0.11607503 0.08804161
000150 56 2e b8 bd 02 c4 72 b9 e1 3d 2d 3d 73 5a 71 bd
       -0.08993213 -0.00023151937 0.04229534 -0.05892415
000160 59 27 e0 3c 7e 23 fa 3d af 18 f5 3b 8b 15 24 3d
       0.027362512 0.12213801 0.007479749 0.040059607
000170 ee 0f 06 bd 6c 5e 8b 3d ea ba 1c bd 84 b8 95 3d
       -0.032730035 0.06805119 -0.038264193 0.07310584
000180 a0 f1 99 3d 89 c3 c7 ba da c7 3f bd c5 14 59 3d
       0.075167894 -0.0015240769 -0.046821453 0.052998323
000190 25 f6 1d 3d 04 a6 fe bc 34 69 88 3c 8f 78 bc bd
       0.03856482 -0.031085022 0.016651727 -0.09202682
0001a0 e6 f7 eb bc 67 ff 4d 3d 5b 8e a0 bd e0 6a 04 bd
       -0.02880473 0.0502924 -0.07839652 -0.032328486
0001b0 51 7a 9c 3b 88 bd b4 3d 4d 8f be 3d 5a 23 22 3c
       0.0047753234 0.08825213 0.09304676 0.009896124
0001c0 2b 73 c9 bd c3 c3 b3 bb 7e 4e 72 3d d2 f8 ea bb
       -0.0983642 -0.005485983 0.059156887 -0.007170775
0001d0 31 58 f2 3c 33 0d 18 3d 30 e2 21 3d 0e 26 31 3d
       0.029583069 0.037121963 0.03952235 0.043249182
0001e0 7f 04 99 3c 2d 5c b5 3c fc 59 bf 3c 4c b8 d6 bd
       0.018678902 0.02213868 0.023358338 -0.104843706
0001f0 ac 20 3d bc e7 0e 87 3d 0a b6 9c bd db 98 b0 bd
       -0.011543434 0.06594639 -0.07651909 -0.08622905
000200 49 92 de bd a6 b2 d7 bd 3b 7d 6c bd c4 d9 62 bd
       -0.108677454 -0.10532121 -0.057736617 -0.05538346
000210 db dc af bd 71 f5 bd 3d d0 a9 ad 3d e3 28 da 39
       -0.08587047 0.0927533 0.08479655 0.00041610663
000220 85 2c 69 3b f5 37 9a 3d 52 90 a8 bd 99 b6 58 3d
       0.0035579514 0.07530204 -0.08230652 0.052908514
000230 2f a3 0a bd b7 64 82 3d 26 58 a3 3d 89 e5 58 3d
       -0.03384703 0.06366866 0.07975797 0.052953277
000240 ec 57 1e bd c2 b7 69 3d 91 87 a5 3d 20 61 a0 bd
       -0.038658068 0.05706001 0.08082498 -0.07831025
000250 fe 75 d3 bd 70 d5 82 3d fc bf bc bb 38 5c d1 3d
       -0.103252396 0.06388366 -0.005760191 0.102226675
000260 24 05 a4 bd e9 6f 2d bc 28 c5 92 bd 60 71 b9 bd
       -0.08008793 -0.0105857635 -0.07166511 -0.09054828
000270 f7 82 4f 3d 33 37 33 3d f4 e9 ea bc 0f 56 d0 bc
       0.050662007 0.043753814 -0.02867601 -0.025431661
000280 17 48 49 3d 8c ed 48 be 92 95 12 bd 61 cf a7 3b
       0.049141016 -0.19621867 -0.035787173 0.005121157
000290 d8 62 84 bc db 98 87 bd 1d 8a f4 3c d6 89 3b be
       -0.016160414 -0.06620952 0.029851014 -0.18314299
0002a0 cb 83 51 bc d7 67 98 3d e7 ec 04 bc be a9 c8 bc
       -0.01278777 0.07441681 -0.008113123 -0.024495002
0002b0 a6 8a b3 3c 36 b4 a2 bd d0 f7 e9 3d 42 fa 16 3b
       0.021916699 -0.07944529 0.114242196 0.002303735
0002c0 6c f4 aa bd b0 37 ff bd 6b cb 0d 3e 74 86 47 bd
       -0.08347401 -0.124617934 0.13847129 -0.04871221
0002d0 3a 1d 10 3c e9 6a 05 be f4 55 7e 3c 56 b0 75 3d
       0.008796031 -0.13029064 0.0155234225 0.05998262
0002e0 54 95 c7 bd c5 14 ba 3d 63 d4 87 3b 0b e2 f4 bd
       -0.09745279 0.09085993 0.0041451915 -0.11957177
0002f0 01 bc a4 bd da 42 df 3c d2 b8 86 bc 62 7c 15 bd
       -0.080436714 0.027253557 -0.016445551 -0.036495574
000300 bf b1 37 bd a7 6c 2c bc 65 74 d5 bc e4 fa 38 bd
       -0.044847246 -0.010523952 -0.026056478 -0.045161143
000310 69 12 79 3d 1f b0 4b bd 10 bd 5b ba ea 73 72 3d
       0.060808573 -0.04972851 -0.00083823595 0.059192576
000320 40 5f d1 3a e0 b7 57 bc 85 42 0f bc 63 7e a6 3d
       0.0015973821 -0.013166398 -0.008743887 0.08129575
000330 3a e4 45 bc d8 1c b7 3d 34 ae 0d bb 63 96 89 bc
       -0.012078339 0.089410484 -0.0021618726 -0.016795343
000340 ce 1d 0d 3e ca ff 00 3d b8 10 97 bc 11 ff 5a bd
       0.13780901 0.03149394 -0.01844059 -0.053465907
000350 94 b0 38 3d 9d ed a5 bd cb 38 53 bb 98 a4 02 3d
       0.045090273 -0.08101962 -0.0032229896 0.03189525
000360 f4 e9 85 3c 02 30 87 bd ca 47 9f 3d e4 58 74 bd
       0.01634691 -0.06600954 0.077773646 -0.059655085
000370 eb 4e 1d bd 07 53 4e bd 25 4e b0 bc 22 5f c4 bc
       -0.03840534 -0.05037215 -0.021521637 -0.023971144
000380 3f 44 57 bd 04 38 5a 3d 54 be 18 bd 1b 12 44 bd
       -0.05255532 0.053276077 -0.037290886 -0.04786883
000390 f1 5a 10 bd 66 52 83 3d 46 ad ae 3b 2b 5d f9 bc
       -0.03524298 0.06412201 0.0053307144 -0.030439934
0003a0 18 af 54 3d a9 78 b3 3c 2c c2 47 bd f6 ec 69 bd
       0.051924795 0.021908121 -0.04876916 -0.05711075
0003b0 62 1e 24 bd 2e 23 7a bd 62 82 b5 3d 7c f3 2b 3d
       -0.040068038 -0.061068706 0.08862759 0.04198025
0003c0 18 65 07 3e ce b9 8f 3d f5 24 d7 bc 65 ea 93 3d
       0.13222158 0.07017861 -0.02626274 0.072224416
0003d0 f8 8d 6b bd 2e 75 99 3c 8a 16 db 3c b1 33 4e bd
       -0.05750844 0.018732633 0.026744146 -0.050342266
0003e0 ae e5 13 bc a5 bf 92 3b dd 72 97 bd ef 80 fd 3c
       -0.009026928 0.004478412 -0.07394955 0.03094527
0003f0 73 ac 30 bd 68 98 8c bc d3 d7 9c 3d 49 80 f4 bc
       -0.04313321 -0.017162517 0.07658353 -0.029846327

fc2.bias f4 [64]
000000 97 6e 40 bd 7f 8c fb 3c 66 da 5e bd 34 26 0d 3c
       -0.046980467 0.030706642 -0.0544075 0.008615065
000010 78 da 32 bc db 05 a0 bc 6e 66 a6 3c fb 39 02 3e
       -0.010916345 -0.019534042 0.020312514 0.1271743
000020 2a 8a a0 bd 33 91 7a 3d 21 97 9a 3d 2e f0 79 3c
       -0.07838853 0.06117363 0.07548357 0.015255017
000030 ea 57 0c bd 67 16 1b be 61 11 25 bc cf 58 d1 bd
       -0.03426353 -0.15145265 -0.010074944 -0.10222017
000040 c6 52 62 bd ff 73 40 3d e8 65 89 bd 3a cd 55 3d
       -0.05525472 0.046985622 -0.0670889 0.052197672
000050 ea c2 52 bd 88 0f 13 3e 41 34 58 bc b9 0e 84 3c
       -0.051455416 0.14361393 -0.013196052 0.016120302
000060 9d 08 34 bd 66 a8 dc bd 0f 64 93 3d b3 1d 4c bd
       -0.043953527 -0.10774307 0.07196819 -0.04983301
000070 21 9f a7 3d 85 ac a4 bc 1e 97 fa bd 27 32 95 bd
       0.08184648 -0.020101795 -0.122358546 -0.072849564
000080 57 cd a8 3d 2b 73 05 3d 09 c4 33 3d bd df 19 3c
       0.082422905 0.032580536 0.043888126 0.009391722
000090 63 7d c2 3b bf 36 cd 3d 56 7d ed 3c 13 a7 47 3d
       0.0059353574 0.100202076 0.028990429 0.04874332
0000a0 70 4d 8a 3c eb 61 75 3d 50 58 69 3d c5 da 41 bc
       0.016882628 0.059907835 0.056968987 -0.011831944
0000b0 9b 6a b2 3d 1d cc c6 bd 67 5d 5c 3b 35 2f 51 bd
       0.0871174 -0.097069 0.0033625008 -0.05107041
0000c0 23 93 01 bc 11 d3 39 3d 30 85 72 3d af 40 9d 3d
       -0.007908615 0.045367304 0.05920905 0.07678353
0000d0 d3 ff ba 3d bd 54 bd 3d 6d e4 03 3d a0 3c f5 bd
       0.09130826 0.09244678 0.032200266 -0.11974454
0000e0 8a 03 ee 3c 65 a7 00 be 2a 17 74 3c c1 0a 84 bc
       0.029054422 -0.12563856 0.014898101 -0.01611841
0000f0 5b b6 71 bd 73 5f 75 bd 8b 29 5a bd 43 a3 bd bc
       -0.0590118 -0.05990548 -0.053262275 -0.023149138

fc3.weight f4 [16, 64]
000000 c8 21 9f bc 97 25 f7 3d de 97 0d bd ff 7e a7 3d
       -0.019425288 0.120677166 -0.03456866 0.081785195
000010 33 9e ff 3c 7b 33 68 bd 84 4d 7f bd dc b2 5a 3c
       0.031203365 -0.05668972 -0.062329784 0.013348307
000020 aa 8f 27 bd de f1 7b 3c 75 4f b9 bd f5 77 8e bc
       -0.040908493 0.01537749 -0.09048358 -0.017391184
000030 a4 42 1e bd 5c d2 a2 3d 44 7c 19 3d 22 58 b4 bd
       -0.038637772 0.07950279 0.037472025 -0.088058725
000040 99 39 35 bd ff 0c 81 bd 37 ff 51 bc f0 95 34 3c
       -0.044244383 -0.06301307 -0.012817196 0.011022076
000050 7d 1a 95 3d 90 a0 72 bd 23 27 42 bd b5 4a 7a bd
       0.07280443 -0.059235156 -0.047400605 -0.061106402
000060 c8 16 a6 bd cf dd 5d 3d 16 29 26 3d 28 4a f0 3c
       -0.08109814 0.05416661 0.040566526 0.029332235
000070 5b cd 8b bd 4a b4 1c 3c 45 9f 83 bd b6 b8 5c 3d
       -0.06826278 0.009564469 -0.064268626 0.05388709
000080 d7 93 b4 3b ec 8d d9 3c 50 ea 1b 3d f9 5f 90 3d
       0.005510788 0.026556931 0.038065255 0.07049555
000090 15 97 df bd ee 0e d0 3d ff 88 91 3d d8 2f b1 bd
       -0.109174885 0.101590976 0.07106208 -0.086517036
0000a0 bd 97 34 3d 44 8a f5 bd 7a 69 b7 3d 85 81 81 bd
       0.04409002 -0.11989263 0.08955665 -0.06323532
0000b0 1e 97 8a bc 80 cf 3a 3d a8 cd 50 bd f2 95 85 3c
       -0.016917761 0.045608044 -0.05097738 0.016306851
0000c0 4a d2 46 bc cb 70 0b bd 4c 11 43 3d fd 18 34 bc
       -0.012135098 -0.034043115 0.047623917 -0.010992286
0000d0 5a ea 19 3d 2a 31 85 bd de 6b bd bd 61 b8 00 bd
       0.03757701 -0.06503518 -0.0924909 -0.031425837
0000e0 78 82 8a bc 10 8b 71 bd 9f 62 be bd ae 5c b4 bd
       -0.016907915 -0.05897051 -0.09296154 -0.0880674
0000f0 32 6e 0d 3c e8 eb 12 bd ed 3b 69 3d 70 37 1d bd
       0.00863223 -0.03586951 0.056941915 -0.038382947
000100 21 95 e5 bc c7 df 55 3a 24 6f 2a bd 6c bd 6d 3d
       -0.028025212 0.00081586506 -0.0416099 0.058041975
000110 02 a5 02 3c 09 5c fc 3c d3 f2 41 3c 49 e5 cf 3d
       0.007973911 0.030805605 0.011837679 0.101511545
000120 3f 16 88 3d ba 81 9b 3c 0d fd 96 3d d1 d3 12 bd
       0.06644868 0.018982757 0.07372484 -0.035846535
000130 fe b9 61 3c 0e 88 df 3c dd 98 aa 3c cc 82 c4 bc
       0.013777254 0.027286556 0.020824844 -0.02398815
000140 78 c2 81 3d 36 c1 fd bc 52 b1 d5 3c 07 ef 57 3d
       0.0633592 -0.03097592 0.02608553 0.05271819
000150 e1 a7 e2 3c d3 da 0b bc 6e 2f 0f bd 25 1a 7c bc
       0.027667942 -0.0085360585 -0.03495734 -0.015387093
000160 9b 23 d7 3c b6 e3 5b bd bb a0 d0 bd 4d 60 58 bb
       0.026262095 -0.05368396 -0.10186907 -0.0033016384
000170 81 62 7f bd 25 96 38 3d 76 88 99 3d 1a 2a 7a 3d
       -0.0623498 0.045065064 0.07496731 0.061075307
000180 dc a2 16 3c bf 8e e7 3c a3 b6 a1 bd 4e 31 3f bd
       0.009194102 0.028266309 -0.07896163 -0.04667788
000190 3e 0b 98 3d e2 b3 78 bd 22 31 1c bc 1e b4 10 bd
       0.07424019 -0.060718425 -0.009533199 -0.035328023
0001a0 01 b8 81 3c 45 fb 66 bd 28 c0 83 bd 57 ed aa 3d
       0.01583481 -0.056391973 -0.06433135 0.0834605
0001b0 53 dd ae 3d 0e 95 e2 3d ee dd 0b 3d ed f1 fe bd
       0.08538308 0.11063586 0.034147196 -0.124484874
0001c0 de ec 12 3d 1a 56 b2 bd c1 9b 12 3d dd 9f 76 bd
       0.035870425 -0.08707829 0.03579307 -0.06021105
0001d0 1e 30 8f 3c 18 51 82 ba 42 7b 0f 3d 6b 7e 58 3d
       0.017478999 -0.0009942381 0.035029657 0.052854937
0001e0 0b ea 88 3c 5b 73 f6 bd d0 ab 8f bd f0 f8 ea bd
       0.016713163 -0.12033721 -0.070151925 -0.11473262
0001f0 39 24 05 3c 04 07 68 3d 53 b6 0f bd 5e 10 10 bc
       0.008126312 0.056647316 -0.035085987 -0.008792965
000200 70 2b 1c bd 1b d3 1e bc 09 18 1d bd 33 c6 c1 bc
       -0.038127363 -0.009693886 -0.038353 -0.023654079
000210 2b 9d 9b bd da 2e b3 3d 60 2b c5 3d ee 6b 47 bd
       -0.07598337 0.087491706 0.09627414 -0.048686914
000220 69 20 3d bd 2e ba 31 3d f9 80 a2 3c 4d 8b 47 3c
       -0.046173487 0.043390445 0.01983689 0.012179208
000230 83 ba 0f 3d 5f 4c 7e bc 19 8f 3a bd 3b 85 05 bd
       0.03508998 -0.015521138 -0.045546625 -0.03259776
000240 64 b1 a1 bd 56 dc 2e 3d 95 b0 8a bd 1b 8f 5d bd
       -0.07895163 0.042690597 -0.067719616 -0.054091554
000250 ce cc 62 3d b0 cc 6a bd 18 d5 e8 bc aa 8b 97 3d
       0.0553711 -0.05732411 -0.028421924 0.07399686
000260 67 09 55 bd 51 11 ad 3d 86 5e 94 3d b5 8b 86 bd
       -0.05201092 0.084505685 0.072445914 -0.06569616
000270 aa 67 9d bd 5d cb e5 bc 5e b8 dc 3d d9 46 c4 39
       -0.07685788 -0.028051073 0.10777353 0.0003743682
000280 cc 75 9b bd 70 e0 06 bd 56 4f 8f 3c 40 87 89 3b
       -0.07590827 -0.032928884 0.017493885 0.0041970313
000290 03 91 de bc bd 28 73 bd 98 97 a4 bd d7 54 2b 3c
       -0.027168756 -0.059365023 -0.08036727 0.010457239
0002a0 cd 7e a7 3b 33 6a 00 3d 71 f6 af 3d 93 27 88 3d
       0.0051115514 0.03135128 0.08591927 0.06648173
0002b0 e6 15 1b bc 9c 25 f2 bd c2 f0 60 3d 5f 2b 01 3d
       -0.00946567 -0.1182358 0.054917105 0.031535503
0002c0 9b af ac 3c e9 cf a8 bb 74 a9 9e bc 16 86 e4 3d
       0.021079829 -0.005151738 -0.01936791 0.11158387
0002d0 ab 80 02 3d 50 7b c2 3c ae a6 92 bd 11 c0 a3 3d
       0.03186099 0.02374044 -0.07160698 0.07995618
0002e0 12 f7 96 bd 78 5b 6f 3c 4c 1d 4a 3d 3e cf 7c 3c
       -0.07371344 0.01460921 0.049344346 0.01543027
0002f0 de 0c cb bc 93 b3 a3 bc 4e d4 99 bd 25 77 94 3c
       -0.024786409 -0.019983089 -0.07511197 0.018123219
000300 20 4d e2 bc 54 b2 b6 bc 59 5a 67 ba 1a 1a 9e 3c
       -0.027624667 -0.02230183 -0.00088254135 0.019299556
000310 6c 22 9a bc 70 70 fd 3c 21 b1 22 3d 23 a8 10 3b
       -0.018815242 0.030937403 0.039719705 0.0022072874
000320 e3 12 df 3d 8b a1 93 bd c1 f6 06 be fc 32 48 bd
       0.10892274 -0.07208546 -0.13180067 -0.048876747
000330 29 0d a4 bd 21 ee 24 bd f2 10 ec bc 38 66 34 be
       -0.080103226 -0.04026616 -0.028816674 -0.17617118
000340 0a 59 09 bc c7 f3 24 3d 8d 2b 2a bd ff 8e 8e 3d
       -0.008383045 0.040271547 -0.04154544 0.06960868
000350 d2 78 38 3d a8 a6 a6 bc dd 65 b9 3c 4e 07 aa bc
       0.0450371 -0.02034314 0.02263158 -0.020755436
000360 3c 1b 9b 3c 44 18 2d be 11 e2 bc 3d fe c2 64 bd
       0.018933885 -0.16903788 0.09222806 -0.05585002
000370 06 8e 05 3a 0d 63 0c bc a8 c2 4e bd 8f 41 0e bd
       0.00050947105 -0.008568537 -0.050478607 -0.03473049
000380 9f 27 1a bd b8 f7 20 3d 71 70 9e bb 75 fc 52 bd
       -0.037635442 0.039298743 -0.0048351814 -0.051510293
000390 f5 80 81 bd d8 9f 59 3d 20 cd 18 3d 4f fa 8f 3c
       -0.06323425 0.053130955 0.037304997 0.017575411
0003a0 7f 7b 88 3d 6a d4 d9 bc 1f cb 35 bd 66 6b d7 bc
       0.0666418 -0.026590545 -0.044383164 -0.026296329
0003b0 8e 49 f3 bc 93 2f 9c bc 14 d9 07 3d 4f d2 87 3d
       -0.02969816 -0.019065654 0.033166006 0.0663191
0003c0 44 a3 2e 3d fd 2d a7 3d 0d 4c 46 3d 81 17 0f bd
       0.04263617 0.081630684 0.04841237 -0.034934524
0003d0 1b fa 87 bc f4 d6 80 3d 9c 65 df bc 64 7a 7f bd
       -0.016598752 0.06290999 -0.02727013 -0.06237258
0003e0 55 be 05 bd 56 c6 04 3d 01 51 6d 3d 6b e1 d1 bd
       -0.032652218 0.03241571 0.05793858 -0.10248073
0003f0 47 02 54 bd fb 4c 2f 3d cb 67 33 3d f2 6c e9 3c
       -0.051759984 0.042798024 0.043800157 0.028494332

fc3.bias f4 [16]
000000 8d 3b 90 bd f5 60 d8 3d b8 c5 e9 bd d2 b5 af bd
       -0.070426084 0.10565368 -0.11414665 -0.08579601
000010 9e 45 48 bc be 8c 36 bd 59 e9 6a 3d 55 8d 1e bc
       -0.012223629 -0.044567816 0.057351444 -0.009677251
000020 72 70 a6 3c 2b 37 30 bd 93 09 d8 bc cc da 5a bc
       0.02031729 -0.043021362 -0.026371753 -0.013357829
000030 38 d0 13 bd 7c 10 fa bc 79 a9 40 bd cc cf 26 3c
       -0.036087245 -0.030525438 -0.04703662 0.010181379

fc3out.weight f4 [64, 16]
000000 29 22 15 3e 49 df 53 be 4f 83 8f bd 04 9e a2 bd
       0.14563812 -0.20690645 -0.07007467 -0.07940295
000010 95 9a dc bc e6 ab 85 3e a1 fd e9 3d aa 3d d0 3d
       -0.02692918 0.2610771 0.11425329 0.101680115
000020 1a bd 12 3e a8 be 31 3e 20 11 80 3d ae 89 66 3e
       0.14329949 0.17357886 0.06253266 0.22513458
000030 5d d0 a3 bd 41 25 3e 3e 09 bd 9b 3d d5 20 63 3e
       -0.079987265 0.18568899 0.07604415 0.22180493
000040 e3 82 71 3e 6e 88 79 3d 42 40 1a 3e 68 26 41 be
       0.23585086 0.060921125 0.15063575 -0.18862307
000050 32 9f 70 3e 9f 68 35 3e 84 32 80 3e 27 8e 9b 3d
       0.23498228 0.17715691 0.2503854 0.07595473
000060 ba 52 3b be 4c 37 7a be 11 09 55 3d c6 7a 2d be
       -0.18293276 -0.24435157 0.0520106 -0.16941366
000070 be 86 26 3e 62 28 ae bd 32 8a 02 3e 7c 1a 90 3c
       0.16262338 -0.08503796 0.1274803 0.017590754
000080 b5 1d d7 3d 72 1f 6a be 1a eb 2d bc 2d e2 da 3d
       0.10503713 -0.22863558 -0.010615135 0.10687671
000090 03 98 1e be 5e 42 8c 3e 2a b8 83 3e 0b 99 23 3e
       -0.15487675 0.27394384 0.25726444 0.1597635
0000a0 13 33 63 bd 38 22 86 be b4 15 28 be e3 e5 05 be
       -0.05546863 -0.26197982 -0.16414529 -0.13075976
0000b0 8c 62 8c bd 70 e6 58 be 02 7e 9f 3e 0a ab d3 bd
       -0.06854734 -0.21181655 0.31150824 -0.103353575
0000c0 e0 30 b8 3c 86 14 64 3b 5f 39 02 be 20 e9 cc bd
       0.022484243 0.0034802272 -0.12717198 -0.100054026
0000d0 7a a3 48 bd 9b ef 53 3e 8f 09 a1 bc fc cd 47 3d
       -0.04898403 0.20696871 -0.019657878 0.048780426
0000e0 ce 6f 5b 3d 92 24 32 be 13 3e 35 3e 76 57 06 3d
       0.053573422 -0.17396763 0.1769946 0.032798253
0000f0 c1 a9 7f bd 41 cf c8 bd 4e 56 9c be 4d 93 22 be
       -0.06241775 -0.098051555 -0.30534595 -0.15876503
000100 21 54 20 3d be d7 15 3e b1 a0 e1 bd e2 c3 08 3e
       0.03914273 0.1463308 -0.110169776 0.13355973
000110 0f 46 e0 3c 84 a1 0d 3e c8 11 a6 3d 0b a0 55 be
       0.027377157 0.13831145 0.0810886 -0.20861833
000120 70 79 32 be 05 71 9a bc 5d 43 51 be da 4a 13 3e
       -0.17429137 -0.01885272 -0.20435853 0.14384022
000130 30 08 cd bd 15 bb c4 bd 66 93 b1 bd cf ca 56 3e
       -0.10011327 -0.096059956 -0.08670692 0.20975803
000140 f2 23 93 3c 63 3a 2d be f4 99 28 be bb af 39 bd
       0.017961476 -0.16916804 -0.16464978 -0.045333605
000150 b5 87 73 bd 92 a4 20 be 6c a3 30 bd 97 57 42 3e
       -0.059455592 -0.15687779 -0.0431246 0.18978725
000160 64 63 65 3e fe eb 0d be 5f 48 98 3d 3a 12 71 be
       0.22401196 -0.13859555 0.07435679 -0.23542109
000170 81 e5 63 3d 4f ea 8c 3d 8e 7d 17 3e 24 d9 86 bd
       0.055638794 0.06880628 0.14793989 -0.06584385
000180 47 6e 2a be 52 38 c8 bd 62 b0 2a bc 65 f6 e4 bd
       -0.1664363 -0.09776367 -0.0104180295 -0.111798085
000190 1a 39 26 be 80 9a 8d 3e 29 ba dc bb 34 3e 98 3e
       -0.1623272 0.27656937 -0.006736059 0.29734957
0001a0 cd 49 db bc c4 3e a2 3d ff 9a 17 3e f6 79 40 be
       -0.02676859 0.07922128 0.1480522 -0.18796524
0001b0 b0 96 4a be 9f 71 04 3e 5e 58 c0 bd 25 30 24 bd
       -0.19784045 0.12933968 -0.09391855 -0.040084977
0001c0 14 52 b7 bd f5 5d 65 3e c6 c9 6e be db 76 65 3e
       -0.08951202 0.22399123 -0.23319158 0.22408621
0001d0 8e 2b 7e be 9d 09 01 be d8 a2 6c 3e bc 17 5e be
       -0.24821302 -0.12601323 0.23108995 -0.21688741
0001e0 f8 cb 0c 3d c2 4f 83 3c 32 40 27 3d d1 fc d1 bd
       0.034374207 0.016029242 0.040832706 -0.10253299
0001f0 b9 36 3c 3e 58 10 d9 3c 12 ef 6b 3e c2 0f 47 3d
       0.1838025 0.026497051 0.23040417 0.048599012
000200 7f 7a ee bd e4 4b 55 be c6 23 95 bb 29 7d 92 bd
       -0.11644458 -0.20829731 -0.0045513837 -0.07152779
000210 4b ce 40 3e 0f 47 24 be 76 cc df bd 4c e8 da bd
       0.18828695 -0.16042732 -0.1092767 -0.10688838
000220 dd 8a 64 be eb 15 5d 3e 05 da 16 be 7b 6f 62 3e
       -0.22318597 0.21590392 -0.14731605 0.22112839
000230 9f 07 cf 3c 83 3f 17 3e 1f 78 29 bd 84 35 9d bd
       0.025272189 0.14770322 -0.041374322 -0.07676223
000240 ab be 5d be bc 28 73 be 6a f3 2f 3e ce db 8d 3e
       -0.21654765 -0.23746008 0.17182699 0.2770676
000250 94 50 47 3e 78 3a c1 3d fb a7 51 be f0 08 a6 3c
       0.19464332 0.0943498 -0.20474236 0.020267934
000260 3d a3 bf 3c ad 06 bf 3d 36 4b d3 bd cb 72 6e bd
       0.023393268 0.09327445 -0.1031708 -0.058214944
000270 2a fe 05 bd f4 2f 6f be 99 2b 42 bc 0e b8 1e bd
       -0.032713093 -0.23358136 -0.011851215 -0.038749747
000280 53 34 74 be b6 72 85 bd 37 2f e5 bc 0e de 23 be
       -0.23848085 -0.0651602 -0.027976615 -0.16002676
000290 6c 85 c8 3d 52 d1 5a be 6e 72 c8 3c 39 0e 3f 3e
       0.09791073 -0.21368912 0.024468627 0.1865777
0002a0 87 8b b4 3c 9d 7d 06 be 54 9c 5d bd 45 b4 f4 bd
       0.022039188 -0.13133855 -0.054104164 -0.11948446
0002b0 a4 a5 0e be 6d 1a 7b 3d 83 05 81 ba 9d ae 01 be
       -0.13930374 0.0613045 -0.0009843562 -0.12664266
0002c0 79 57 91 be 97 af 44 be 90 8a 9d be 9b a2 1a 3a
       -0.2838705 -0.19207607 -0.30769777 0.0005898864
0002d0 87 bb 43 be 36 46 9a 3e aa 99 8a bd d0 e6 0a be
       -0.19114505 0.30131692 -0.0676759 -0.1356461
0002e0 86 35 dc 3d 1e 5c 5b be 9d 6d 96 3d 69 18 ac 3e
       0.10752396 -0.21421859 0.07345126 0.33612373
0002f0 2a 4d 4b be 66 ed b1 be f5 e6 e8 3d c5 37 59 3e
       -0.19853655 -0.34751433 0.113721766 0.2121268
000300 60 32 81 be fd 9d 28 3d 4e 04 2d 3e da b2 7b bd
       -0.25233746 0.041166294 0.16896173 -0.061449863
000310 ac 6b 52 3e 10 ff 94 3d 95 1e 0d be e6 b7 37 3e
       0.20548886 0.07275212 -0.13781197 0.17941245
000320 40 ee 7b 3e a6 b2 05 3e 25 85 f7 3c 52 c1 0a 3d
       0.24602604 0.1305643 0.030214855 0.03387577
000330 d0 3f 38 be 51 8b 57 be fb 5a 35 be 61 74 29 3e
       -0.17993093 -0.21049239 -0.17710488 0.16548301
000340 63 85 8b 3e 32 fc dc bd 1f 2e 08 3e f0 7a 02 be
       0.27250203 -0.1079029 0.13298844 -0.1274221
000350 ec 6e 18 be 1d 29 63 be 72 d4 19 be b0 2d 13 3e
       -0.14886063 -0.22183652 -0.15022448 0.14372897
000360 e6 92 12 be af 5f d5 bd 73 aa 47 be c9 df cb bd
       -0.1431385 -0.10418641 -0.19498615 -0.09954793
000370 e4 25 8d bd 24 de 32 be 80 09 dc 3d 14 71 35 3e
       -0.06891993 -0.17467552 0.107439995 0.17718917
000380 ec 9c c0 bc 68 f1 38 3e 3a 8f 6e bd c0 ea 04 be
       -0.023512326 0.18060839 -0.05824206 -0.12980175
000390 17 6d 53 3e ab 73 ec bd 00 4a 03 bd 2b 84 34 be
       0.20647083 -0.115454994 -0.032052994 -0.17628543
0003a0 a5 6d 36 3e 61 3b 40 bd d8 48 f0 3d ad 8a 3b 3e
       0.17815264 -0.04693163 0.11732644 0.1831462
0003b0 b0 0f 09 3e 86 38 11 be 2a 05 5a be b2 c8 b8 3d
       0.1338489 -0.14181718 -0.21291032 0.090226546
0003c0 98 4e d0 3d 05 68 34 be b6 aa 6b 3d 1f 74 d7 bd
       0.101712406 -0.17617805 0.05753585 -0.10520195
0003d0 fe 1a a4 3d 09 55 86 3d b3 62 0c be 14 74 2a be
       0.08012961 0.06559188 -0.13709526 -0.16645843
0003e0 50 bb 45 3e 2e 58 48 3e 58 df f0 3d 88 73 10 3e
       0.19309735 0.19564888 0.117613494 0.14106572
0003f0 23 ca ab bd ec 22 15 bc f6 d9 f8 3d a8 30 57 3e
       -0.08388164 -0.009102564 0.12150948 0.21014655

fc3out.bias f4 [64]
000000 f1 d2 f0 bc d3 e5 08 3e 11 b8 4c 3e 06 6e cb bc
       -0.02939746 0.13368921 0.19992091 -0.024832737
000010 80 60 b8 3d 1b 85 87 be a3 83 14 3e d5 89 91 3e
       0.09002781 -0.2646874 0.1450334 0.2842547
000020 1d 8f 57 be e4 ad 9a 3a c6 07 4b bd 5e d9 61 be
       -0.21050687 0.0011801091 -0.04956796 -0.22055575
000030 3f 56 74 be 5f 75 78 be a7 4c 12 bd 50 86 16 3e
       -0.23861025 -0.24263524 -0.035717633 0.14699674
000040 9f 2c c6 3c 88 cb f4 bd b9 8c 8f be 0c 45 f7 3d
       0.024191199 -0.11952883 -0.2803705 0.120737165
000050 97 ad e3 3d cd d1 d3 bd 0f c9 40 3e ce f6 89 3e
       0.11117094 -0.10342751 0.18826698 0.2694611
000060 9e c9 3e bd e0 37 01 be eb 4b a6 3e 66 1c 6e 3d
       -0.046578996 -0.12618971 0.32479796 0.05813255
000070 73 8a 31 be 7b 05 71 be d5 30 44 be 66 45 84 be
       -0.1733797 -0.23537247 -0.19159253 -0.25834197
000080 9a 04 89 bd f8 81 98 3e 99 14 27 3e 97 94 dd bd
       -0.06690331 0.29786658 0.16316451 -0.10819357
000090 46 f1 37 3e e4 ac 19 be a8 76 3a be 32 21 06 be
       0.17963132 -0.15007359 -0.18209326 -0.130986
0000a0 15 fb 38 be 03 92 5e 3d f2 73 50 be 9e 80 86 3d
       -0.1806453 0.054338466 -0.2035673 0.065675005
0000b0 d9 44 6c bd 35 91 4e 3e 4b 89 1d be 7b de 32 be
       -0.057682846 0.2017258 -0.15384404 -0.17467682
0000c0 d6 76 dc 3d 50 71 73 3e 25 78 47 be 9c 37 0b be
       0.10764854 0.23773694 -0.19479425 -0.13595432
0000d0 20 33 85 3e b2 a3 3d be e3 20 73 be 9f f4 39 be
       0.26015568 -0.18519476 -0.23743014 -0.18159722
0000e0 d6 ec e2 3d db d7 aa 3e 58 c0 73 be c4 35 62 be
       0.11080329 0.3336781 -0.23803842 -0.22090822
0000f0 25 1e e1 3b 33 8c 05 3d 04 ec 3f be 91 f3 20 be
       0.0068700486 0.032604408 -0.18742377 -0.15717913

fc2out.weight f4 [128, 64]
000000 cb 19 f3 3d 0c a7 c1 bd 43 4c 86 3d f2 1d fd ba
       0.11870154 -0.0945569 0.065575145 -0.0019311293
000010 a3 d2 60 bc db be 98 3d 39 19 2a 3d c3 be 24 bd
       -0.013722095 0.07458278 0.04152796 -0.040220987
000020 05 a6 0f 3d f4 e6 11 bd 5a 1d 7c 3d c6 76 a7 3d
       0.035070438 -0.035620645 0.06155143 0.08176951
000030 a8 4c be bd 8f 6d 0c 3e 69 b9 48 3d c7 23 c5 3d
       -0.09291965 0.13713668 0.049004946 0.096259646
000040 a6 03 28 bd 6a 20 03 3d 90 c1 f9 3d 2d ad dc 3c
       -0.041019104 0.032013334 0.12195122 0.026938045
000050 1f 27 2b bd c9 ac fb bd 95 78 07 be 22 a6 af 3d
       -0.041785356 -0.122888155 -0.13229592 0.08576609
000060 0b 85 e1 bd 6a 6c 2e 3e 9f 89 09 3e ac 94 49 bc
       -0.11011704 0.17033544 0.13431405 -0.012303513
000070 d8 6e 65 bd 9b b4 d6 bc 3a fe 02 3e 90 98 7e bc
       -0.056013912 -0.026209166 0.12792292 -0.015539303
000080 d4 d4 58 bd ac a4 b8 bd 42 c6 d0 3d 56 c9 de 3d
       -0.052937344 -0.09015784 0.10194065 0.108782455
000090 47 b0 10 bd e2 12 21 bc 88 45 3d 3d 35 d6 1d 3d
       -0.03532436 -0.009831162 0.04620889 0.038534362
0000a0 bb 87 4a 3c aa f3 6a 3c 98 7b d7 bd 41 8e 40 be
       0.012361462 0.014340321 -0.105216205 -0.18804266
0000b0 46 bd 0b 3c 7c 96 b9 3d 2d 32 b2 3d c0 7b b7 bd
       0.008529013 0.09061906 0.087009765 -0.0895915
0000c0 36 f8 d6 bd 1a 9e d7 3d 44 85 94 bd 82 16 bf 3d
       -0.10496561 0.10528202 -0.07251981 0.09330465
0000d0 4f b2 1d 3e ff f8 b1 3d a7 db de 3c a1 73 02 3e
       0.1540005 0.0869007 0.027204348 0.12739421
0000e0 7a 9b d6 bd d5 f7 9e 3d bc ee 3d 3d 41 cb 0b bd
       -0.104788736 0.07762114 0.046370253 -0.034129385
0000f0 7f f3 1a 3e 8c f2 6e 3d 70 5c e1 bd e1 6b 09 3e
       0.15131949 0.05833678 -0.11003959 0.13420059
000100 c4 15 a5 3d 47 9c 8d 3d 7e 25 49 3d 81 a8 10 3d
       0.08060792 0.06914573 0.04910802 0.035316948
000110 26 da ef 3d 38 3a a6 bd 39 c9 0b 3d 66 0b 71 bc
       0.117115304 -0.08116573 0.034127448 -0.01471219
000120 91 c2 4a 3c a5 e1 a8 3d ee 2e 9b bd d5 bd 9e bd
       0.01237549 0.08246163 -0.075773105 -0.07751051
000130 6b 6b d6 bd 79 b9 51 bd dc 77 1c bc a4 4e 24 3e
       -0.10469707 -0.05120227 -0.009550061 0.16045624
000140 65 c9 b2 3c 01 71 97 bd 9f 28 d3 3d 8e e0 01 be
       0.021824548 -0.07394601 0.10310482 -0.12683317
000150 d6 68 14 be 49 45 15 be 0d 96 3f 3d 4f 02 c2 3b
       -0.14493117 -0.14577211 0.04677396 0.0059206854
000160 66 60 06 3e 46 54 85 bd 16 23 1d 3d 9f 34 40 bd
       0.1312271 -0.065102145 0.03836354 -0.046925183
000170 72 54 a1 bc 41 46 7a bd a0 50 d2 3d f5 11 a1 bd
       -0.019693587 -0.061102156 0.10269284 -0.07864753
000180 9e 7e 06 be fd e1 78 3c 84 a7 b0 bd 43 4c 5e 3d
       -0.13134238 0.015190599 -0.08625701 0.054271948
000190 00 23 8f 3d 72 8d 8e bd ed 9a a9 3d 0a a4 21 bb
       0.069890976 -0.06960572 0.08281503 -0.0024664425
0001a0 78 40 34 3d 5b 3f db 3d 4f 64 d2 3d b6 2a e2 bd
       0.044006795 0.107054435 0.102730386 -0.11043303
0001b0 88 52 90 bd 9b ec 85 3d 4a 10 26 3d 82 d2 be 3c
       -0.070469916 0.065392695 0.04054288 0.023293737
0001c0 91 f9 83 3d 81 bb 73 3d 95 3f 27 bc 53 18 5d bd
       0.064440854 0.05950499 -0.01020803 -0.053978276
0001d0 ac bf aa 3b 7d 24 5f 3d 7b b2 76 bd f4 ad c1 3c
       0.0052108373 0.054478157 -0.060228806 0.023642518
0001e0 30 0d ae bd be 03 b5 bc 97 33 43 3d 29 da 1d ba
       -0.08498609 -0.022096511 0.04765662 -0.0006021583
0001f0 c0 09 de bd 04 8f 8a bc 09 b6 ce bd 16 c3 98 3d
       -0.108417034 -0.016913898 -0.10093314 0.07459085
000200 23 28 8a bd d9 5f d8 3d 36 a2 5f 3d 83 fe 86 bd
       -0.06745937 0.105651565 0.054598056 -0.06591513
000210 c4 98 74 bd 7a 56 d2 bd 19 98 ce 3d 71 3e d8 bd
       -0.059716 -0.102704 0.10087604 -0.10558785
000220 dd 9a 8d bd 21 3e 9c bd 63 33 3f bd 1a 96 53 bd
       -0.069143035 -0.07629038 -0.046679866 -0.05165682
000230 c8 9f af 3d 2a 56 05 bd ed 61 ef 3b 0d 8d f9 bd
       0.08575398 -0.032552876 0.007305375 -0.121851064
000240 65 5d 71 bd 0a af 95 bd 13 06 1d 3d 60 27 e7 bd
       -0.05892696 -0.07308777 0.03833587 -0.11286807
000250 03 21 36 3e fd c2 a4 3d 18 4b c0 bb dd e8 2e bd
       0.1778603 0.080450036 -0.005868327 -0.042702544
000260 04 87 0d 3d bc b5 e8 3d 38 57 d0 bd e5 66 3a bc
       0.03455259 0.11362788 -0.10172886 -0.011377071
000270 84 4b d3 bc 98 f7 d6 3d 92 f1 ac bc 74 0e f6 bd
       -0.025792845 0.104964435 -0.021111283 -0.120144755
000280 c8 75 7f 3c dd dd bc 3d c1 2b dc 3d 78 fe c0 bc
       0.015592046 0.092220046 0.10750533 -0.02355884
000290 f3 eb f0 3c 30 80 92 bc 26 87 d5 bc b0 0a 33 3d
       0.029409384 -0.01788339 -0.02606542 0.043711364
0002a0 d1 75 7a 3c 18 2e 23 be 4e 74 43 3c 62 ed cb 3d
       0.015286879 -0.15935552 0.011929585 0.099573866
0002b0 1f 0a 9c bd 16 9c 77 3d 4e 53 e2 3c fe d3 dd bd
       -0.07619118 0.06045159 0.027627613 -0.1083145
0002c0 63 df 6f 3d 42 70 af 3c 14 af 45 bd fe bf 07 3e
       0.058562648 0.021415833 -0.04826267 0.13256833
0002d0 a1 15 80 3d ac 2c 2b ba 98 6b 42 3d 8a 56 f8 3c
       0.062541254 -0.0006529789 0.04746589 0.030314703
0002e0 69 d8 fd 3d b3 d7 54 bd 0b 38 27 be 62 10 e7 bd
       0.123947926 -0.05196352 -0.16329972 -0.11282422
0002f0 33 f0 8a 3c 69 c0 ef bc af f7 f0 bd 50 9d 8a 3d
       0.016960239 -0.029266553 -0.11765992 0.06768286
000300 86 2c 3c bd 9a 93 75 bd b1 d8 28 3d a0 3b 07 3e
       -0.0459409 -0.059955217 0.041222278 0.13206339
000310 69 26 22 be e2 18 08 3a 68 3e 29 bc ff aa 0a be
       -0.15834965 0.0005191696 -0.01032982 -0.13541792
000320 8d 81 11 3c 5b 28 e8 bd be db b0 3d 51 2d 03 be
       0.008880985 -0.11335822 0.086356625 -0.12810256
000330 e6 2a bb 3d 12 e0 0e 3e 6a 4e b4 3d 83 0a 04 3e
       0.091390416 0.13952664 0.08804019 0.12894635
000340 99 54 ca bc aa 15 9a bd 1b 04 36 be 55 fc d7 bd
       -0.024698542 -0.07523663 -0.17775004 -0.105461754
000350 7c 6b f8 bc 18 1d 2c 3e 7c 6b 64 3e 8d 0d 01 3e
       -0.03032469 0.16807973 0.22306627 0.12602825
000360 d0 ec 04 be 8d 46 32 3e 9e 54 13 3e aa f0 fc 3d
       -0.12980962 0.17409725 0.14387748 0.123505905
000370 a5 4a 45 3d 18 a1 40 be 5a 13 60 3e be 3b b5 3d
       0.04816689 -0.18811452 0.21882382 0.088492855
000380 09 66 16 3c e6 3e 20 be be 26 fb bd e6 8a 0e 3d
       0.0091796005 -0.15648994 -0.12263249 0.034800433
000390 67 a5 a3 3d f1 ca 0e be de c2 18 bd e8 67 15 be
       0.07990532 -0.13944604 -0.037295215 -0.14590418
0003a0 2d fa 4c 3c d5 73 ed bd ba 74 c0 3b 13 51 b4 bd
       0.012510818 -0.11594359 0.00587329 -0.08804526
0003b0 16 01 ae 3d 75 e2 c0 bd c7 57 55 bd c6 bf 1f 3e
       0.08496301 -0.09418193 -0.052085664 0.156005
0003c0 04 a5 aa 3d 9f 9f 03 3e 22 92 ca bd 1c 1b 88 3d
       0.083322555 0.1285386 -0.09891154 0.06645796
0003d0 d3 e0 de 3d 04 9d 06 bd df e0 f5 bd b5 02 a8 3d
       0.108827256 -0.032864586 -0.120057814 0.08203641
0003e0 1b 06 26 be 69 ca 12 3e 37 74 96 3d 90 02 07 be
       -0.16213267 0.14335026 0.07346385 -0.13184571
0003f0 3d 59 61 be 31 b9 11 bb 21 49 43 be 3d d9 8e 3d
       -0.22006698 -0.0022235627 -0.19070865 0.06975029

fc2out.bias f4 [128]
000000 d5 b9 b6 3d 4f c1 2b 3e 3f f9 7d bd fb b8 11 be
       0.089221634 0.1677296 -0.062005278 -0.1423072
000010 87 61 d0 3d 13 85 18 3e 11 4a 82 bd ad 6e 08 3d
       0.10174852 0.14894514 -0.06361783 0.033308674
000020 1c 23 11 3e 17 1f a1 3d e3 22 e1 bc 7a be 98 bd
       0.1417355 0.07867258 -0.027482456 -0.074582055
000030 5c 63 18 bd 45 54 76 3d 60 69 ca 3d bb 17 e1 bc
       -0.03720413 0.06013896 0.0988338 -0.027477136
000040 66 8d b7 bd 47 bd a6 3d 40 bb 42 3d a1 4d b9 bd
       -0.089625165 0.081415705 0.047541857 -0.0904801
000050 45 5b c6 bb f9 ce 0f bc c8 06 ef bd 4a 5d 9b 3b
       -0.0060533606 -0.0087773735 -0.11671215 0.0047413455
000060 f4 64 12 3c 93 1a ef bc ea 11 49 3d 51 4c 22 3c
       0.008935202 -0.029187476 0.04908935 0.009905891
000070 a8 10 6f 3c be 83 a5 3c 5a d2 a2 3d 49 8e a6 3d
       0.0145913735 0.020204421 0.079502776 0.081326075
000080 20 6d d2 3d e2 48 95 3d 6e 5a d7 bd 55 36 2b 3e
       0.1027472 0.07289292 -0.10515295 0.16719945
000090 cc 9b 9f 3d 22 ff 8d bd 4c b8 05 bd af e4 72 3d
       0.07793388 -0.06933428 -0.032646462 0.05930012
0000a0 f6 db a8 bc 86 3d 63 bd 34 5e e2 3d 9a a0 0f 3d
       -0.020612698 -0.055478595 0.11053124 0.03506527
0000b0 0f 40 b0 bc ed 11 b6 3c 09 d4 60 bd 16 24 4a bd
       -0.02151492 0.022225345 -0.054889712 -0.04935082
0000c0 7e 41 96 bd 80 5d f2 3d 43 c2 44 bd 95 a5 a5 3c
       -0.073367104 0.1183424 -0.048036825 0.020220557
0000d0 ed 95 7d 3b f2 43 21 3d ae ee 0b be 64 6f 54 3d
       0.00386941 0.03937144 -0.13665268 0.051864043
0000e0 6b e8 ba bd 29 de 13 3e 0f 0a a9 3d 12 42 e4 bd
       -0.091263615 0.14440216 0.08253872 -0.111454144
0000f0 fd 32 bf 3b f7 26 6d bd 32 0c 05 3e 2d 63 f9 3d
       0.0058349357 -0.057898488 0.12992933 0.121771194
000100 3d 71 a1 bd cc e0 79 3d 90 51 d0 3d db 8f 19 3d
       -0.078829266 0.0610054 0.10171807 0.037490707
000110 8e 65 fe bb ff c7 06 be 9e 4e 18 3d a7 7b 81 3d
       -0.007763571 -0.1316223 0.03718435 0.06322413
000120 80 7f 4a bd a1 5e f3 bd 82 87 c9 bd b9 e4 0f bc
       -0.049438 -0.118832834 -0.09840299 -0.008782559
000130 6b be 42 bd 86 c6 d4 bd f5 b5 2f bd ad 2f f4 bd
       -0.047544878 -0.10389428 -0.042898137 -0.11923156
000140 89 d7 8e 3c b2 4c 00 be 99 fd c1 3d 90 76 9a bd
       0.01743676 -0.12529257 0.09472198 -0.07542145
000150 49 53 09 be c7 4d b8 3b f1 c7 87 3d a0 4b b4 3c
       -0.13410677 0.005624506 0.06629933 0.022008717
000160 85 3a 67 3d e8 4e 11 be 55 32 d2 bd c0 1f 8d bd
       0.056452293 -0.14190257 -0.10263506 -0.068908215
000170 35 81 03 bc 6c 4e 92 3c 9d 2d c9 bd 8a 17 1d bd
       -0.008026411 0.01785966 -0.09823153 -0.038352527
000180 4f 18 04 bd 6c b6 0c 3e 87 f7 d5 bc d9 d7 08 bc
       -0.032249745 0.13741463 -0.026119007 -0.008352243
000190 32 12 ca 3d 7e 3d 87 bd 4e cc 82 bd 8a dd c1 bd
       0.09866752 -0.066035256 -0.06386624 -0.09466083
0001a0 4c e6 1f bd 45 de 23 3d 6a 67 19 bc 5c ac b4 bd
       -0.039037988 0.040006895 -0.009363035 -0.088219374
0001b0 56 c9 e6 3d 20 2a 2f bb bf ee 27 3d 9e 5f d8 bc
       0.112688705 -0.002672799 0.04099917 -0.026412781
0001c0 70 ed 11 bd 05 87 b1 bd e4 c3 d8 3d 23 d9 64 bd
       -0.03562683 -0.08668331 0.10584238 -0.05587114
0001d0 77 c7 ac 3d 00 b8 9f bc 69 97 4c bd d0 2f 02 be
       0.084364824 -0.019496918 -0.049949083 -0.12713552
0001e0 24 c6 89 bd a0 8f b5 bc c6 d5 f4 bc 75 49 44 bd
       -0.067272455 -0.022163212 -0.029887091 -0.047921617
0001f0 bc b9 54 3d 57 88 1e be d5 1c e2 3d 90 0e ec 3d
       0.051934943 -0.15481697 0.110406555 0.11526215
